CausalWorld/Models/pixel_actor.pth (torch, 388023 bytes, 8 tensors)

actor_net.0.weight f4 [256, 100]
000000 94 08 88 be 9e 85 d9 bc 0b 46 33 bb 3d 81 01 3b
       -0.26569045 -0.026552971 -0.0027354981 0.001976087
000010 dd 89 43 3c ee 00 cc 3b 44 a8 61 3c 59 fc d8 3d
       0.011934725 0.0062256968 0.013773028 0.105950065
000020 7d fd eb bd 90 dc a7 3b da da 30 3b 7f de eb bc
       -0.115229584 0.0051227286 0.0026985914 -0.028792618
000030 3f 1b f4 3b 31 11 02 3a 0c bf 2e bc d7 f1 5b 3b
       0.007449537 0.0004961668 -0.010665666 0.0033560896
000040 1b ba ce 3c 61 55 1b bb b8 8e be bb 55 92 9f 3b
       0.025235226 -0.0023702013 -0.0058153532 0.004869739
000050 99 58 ea bb c7 5f 74 3b 79 a7 6c 3d e4 7e 13 bb
       -0.007151675 0.0037288533 0.057776902 -0.0022506053
000060 fb b9 50 be 2b a8 32 bc 7f 6d a7 bc f2 17 85 3e
       -0.20383446 -0.010904352 -0.020437954 0.2599483
000070 a8 4a 8a 3a 08 da 43 ba 88 5a 25 bc 07 a4 cd bb
       0.0010550814 -0.0007471149 -0.010092385 -0.006275657
000080 90 2b 0d 3d c0 08 d2 3b f0 0b 45 bc 2b 16 93 bd
       0.034465373 0.0064097345 -0.012026772 -0.071819626
000090 b2 70 0d 3d 97 c5 96 bb e1 32 9d 3b 88 ca 72 bd
       0.034531303 -0.0046011913 0.004797325 -0.05927518
0000a0 38 4e 0a 3b f0 17 c7 bb 0c db f6 3b 33 98 a9 bb
       0.002110375 -0.0060758516 0.0075334366 -0.0051756143
0000b0 af 05 b1 3b 7a 8f e3 3d 3c e8 91 bc 6c cf a1 ba
       0.005402289 0.1111135 -0.017810933 -0.0012345142
0000c0 60 6b 4f 3e 6d 08 da 3a ea 32 80 be 05 49 f2 3d
       0.20255804 0.0016634591 -0.25038844 0.118303336
0000d0 7a c3 24 bc fe e9 41 37 c3 dd 87 bb 63 e9 af bb
       -0.010056371 1.1558177e-05 -0.004146309 -0.005368398
0000e0 6b 5e 47 bc 6a 27 ce 3e 5f 16 81 bb 7c ee 1f 3a
       -0.012168507 0.40264446 -0.0039394344 0.00061009056
0000f0 70 8e ba 3d c1 62 f6 bb 97 ef b0 bb 17 35 ac bb
       0.09109199 -0.0075190966 -0.005399655 -0.0052553522
000100 3b a7 58 bd bf 6c 89 be b4 d3 a6 3b 98 23 42 3b
       -0.05289386 -0.2684078 0.005091155 0.0029623266
000110 0e 7e db be d3 c4 3a be 73 a8 74 3c 1b ac 8e bc
       -0.4286961 -0.18239145 0.01493274 -0.01741605
000120 56 90 16 bc 3f f7 0e bb f0 2b e1 bb d5 25 be bd
       -0.009189686 -0.002181485 -0.006871693 -0.0928456
000130 13 a4 51 bc 79 2c 04 3c 71 ad 5b bc 8a 1f fa bd
       -0.012795466 0.008067244 -0.013408051 -0.12213047
000140 e9 01 50 bc da 60 c3 bb e3 d3 13 bc 38 df 3f ba
       -0.012695768 -0.0059624733 -0.009022686 -0.0007319334
000150 04 fd 3e 3d 7e ea 1c bd dc 07 28 3b c1 08 1b bc
       0.046628013 -0.038309567 0.002563945 -0.009462536
000160 cf 3a 13 bb e6 a0 8a 3c a8 7a 2a bc 9f 9a 20 bc
       -0.0022465473 0.016922425 -0.01040522 -0.00980249
000170 2b f0 40 3c 4a 81 a1 3d e0 df 6f 3c 47 41 5e bc
       0.0117760105 0.07885988 0.014640778 -0.013565368
000180 a3 f5 07 bc be 2c ec bc 0c 08 80 bd 6d 11 46 3e
       -0.00829831 -0.028829928 -0.06251535 0.19342585
000190 74 1e f2 bc 5f 89 db bc e7 f5 14 bd db 55 e1 3a
       -0.029555537 -0.026798902 -0.036367323 0.0017191725
0001a0 45 b8 72 bb b9 f5 74 3c b0 14 e3 3b 10 d4 78 bd
       -0.0037036103 0.014951163 0.0069299564 -0.060749114
0001b0 b8 39 bb 3c fc 01 ae 3b c2 10 1c 3c 84 36 f5 bd
       0.02285467 0.005310295 0.00952548 -0.11973289
0001c0 04 ad 03 3b bc f5 3d 3b 77 a8 df 3c 10 77 77 3c
       0.002009214 0.002898558 0.02730201 0.01510407
0001d0 17 36 1e 3c 8a a0 0c 3c 3b 90 13 3c 07 07 93 3b
       0.009656451 0.008583197 0.009006555 0.0044869217
0001e0 2d ec d3 3b e9 26 3a 3c e3 90 3f 3b 5f 9c 08 3c
       0.0064673633 0.011361816 0.0029230646 0.008338063
0001f0 ca f4 8b 3e 01 1b a0 3b 84 67 91 bc f0 ac 3e bd
       0.27335197 0.0048860316 -0.017749555 -0.046551645
000200 20 80 75 3c 75 69 c2 3b 3b b5 15 3c e2 f0 b6 b9
       0.014984161 0.0059329816 0.009137447 -0.00034893217
000210 04 fc 90 3b a8 3f ec 3b 94 95 06 3c 70 a1 16 3d
       0.004424574 0.007209737 0.008214373 0.036775053
000220 0d 22 ff bf 2d 39 80 39 8f 09 18 3c 44 0f 61 be
       -1.9932266 0.00024456662 0.009279623 -0.2197848
000230 11 fd 02 3c 03 54 cd 3b 20 8c 60 3c 80 3f df 3b
       0.007994906 0.0062661185 0.013705283 0.0068129897
000240 58 0c 6f 3c 7e 66 de bb 2a 95 24 3c d0 17 a2 3b
       0.014590345 -0.0067871204 0.010045329 0.0049466863
000250 bd df 8f 3d bb 5a 6e 3c 56 29 9a bc 93 fc ab bd
       0.070250966 0.014547999 -0.018818539 -0.08397784
000260 09 bd a2 3c 68 ce fd 3b 8a 43 ba 3c 08 8d 89 3c
       0.01986553 0.007745553 0.022737283 0.016790882
000270 75 4e 86 3c 69 32 32 bf b8 24 1e 3c cc 69 38 3c
       0.016394833 -0.6960817 0.009652309 0.011255693
000280 79 8b 9e 3d 55 7f 6e 3c db e9 9d 3b b1 71 b4 3c
       0.07741446 0.0145567255 0.0048191375 0.022026869
000290 ee 68 0f bd a1 67 51 bd f1 c9 cc 3b 7b 6a 2b 3c
       -0.035012178 -0.05112422 0.006249659 0.010462399
0002a0 02 79 87 be 34 b9 29 3c 63 25 1e bc 74 51 72 3c
       -0.2645951 0.010359097 -0.009652468 0.014789928
0002b0 b6 46 c0 ba 1c b2 61 3c 56 be 23 3c d0 c0 82 bd
       -0.0014669511 0.013775375 0.00999411 -0.06384432
0002c0 5d 92 e8 3b bd b9 7c 3c b9 b0 38 3c 45 3a 2b 3e
       0.007097526 0.015425143 0.011272603 0.16721447
0002d0 d0 8c 18 3c 24 ce 48 3c b3 d4 d5 b9 0b b7 ae 3c
       0.009310916 0.012256179 -0.00040785 0.021327516
0002e0 3b fc e0 3c a8 73 43 3c 9d 91 1a 3c 2a c1 3a 3c
       0.027464023 0.01192943 0.009434131 0.011398593
0002f0 d7 91 b8 3c a0 58 88 bc b5 7e 53 3c a9 ce 0e 3c
       0.02253048 -0.016643822 0.012908627 0.008716264
000300 2b 84 f4 3b dc 2b 07 bd e8 ba 40 39 a5 66 82 3c
       0.0074620447 -0.033000812 0.00018380175 0.015918085
000310 07 ca 15 3c 9f 4d 9c 3b 7e 68 1a bd 73 59 2e bd
       0.009142405 0.0047699953 -0.037697308 -0.042565774
000320 0e 9c 87 3c 55 fa 93 bd 58 8b 4e 3d b2 7a 80 bd
       0.016553905 -0.072254814 0.050425857 -0.06273402
000330 2d 6f de bd 04 ea 25 3c bb bf 82 bd b3 53 21 3d
       -0.10861049 0.010126594 -0.06384226 0.039386462
000340 8e 2b 69 3a 97 08 ae bb 0d 79 ab bb 5a e2 78 bd
       0.0008894735 -0.0053110826 -0.0052329362 -0.06076274
000350 54 5b 88 bb ef 9a b1 bd 40 04 f1 3c a3 ea 10 bd
       -0.004161278 -0.08672129 0.029420972 -0.035380017
000360 2b d7 1f be 33 20 20 bd 38 b9 9c 3c 6f 66 11 bd
       -0.15609424 -0.039093208 0.019131288 -0.03549808
000370 63 86 f8 bb 02 20 41 bd 7a be 96 bd 57 cc 80 3d
       -0.0075843795 -0.047149666 -0.07360549 0.06288975
000380 5f d0 3c 3d 89 79 d0 bb 76 b6 a9 3c ba 9f 48 bd
       0.046097156 -0.0063621444 0.020716887 -0.048980452
000390 af fd 21 be 37 d8 14 bc a2 c9 00 bd 41 18 d0 bd
       -0.15819429 -0.009084753 -0.031442292 -0.10160876
0003a0 b9 dc 28 bd f9 9a 59 bd 3b de b6 bc a9 8d 9e 3d
       -0.041226123 -0.05312631 -0.022322765 0.07741863
0003b0 2f 30 2b 3d 27 c9 d2 bd 71 f1 bc 3c bf 2d 1f bd
       0.041794 -0.10292273 0.023064347 -0.038861986
0003c0 a8 18 8d 3d 2d d3 ae bc 2b 87 a8 bd 93 bf ab bc
       0.068894684 -0.02134093 -0.08228906 -0.020965373
0003d0 89 b3 c6 bc be 92 a0 3c d1 05 68 bd ba c5 ae 3c
       -0.02425553 0.019601222 -0.056646172 0.021334518
0003e0 3c c7 f7 bc 74 20 fb 3c 6f ed f5 3c 80 ea 21 be
       -0.03024637 0.030655123 0.030020444 -0.15812111
0003f0 d0 fe 01 bc d9 3d a2 bd 02 74 3b bb 89 fa cd bd
       -0.007934287 -0.07921953 -0.0028603082 -0.100575514

actor_net.0.bias f4 [256]
000000 e2 52 16 3e bc 60 64 3d 3b 1b 99 bc 86 1f 1a 3e
       0.14680055 0.055756316 -0.018689742 0.15051088
000010 eb da e8 3d ba 6f 07 bd 03 ff e1 3d 34 81 d7 bc
       0.1136988 -0.033065535 0.11034968 -0.026306726
000020 00 35 17 3e 36 60 77 3b 2e 9f e8 3d 89 4e a3 3d
       0.14766312 0.0037746555 0.11358486 0.07973964
000030 53 3e 84 bc cc 39 77 3c 75 fd 13 3d c1 1a f4 3d
       -0.016143 0.015089463 0.036130387 0.119191654
000040 c5 0e ec bc bc ca 72 3c ce ed 49 3c 16 a2 02 3e
       -0.028815636 0.014818843 0.012324763 0.12757143
000050 37 43 f8 3d 7c 6e ed 3c 0e cf 99 bc a3 bd 2f 3d
       0.12122195 0.028983347 -0.01877549 0.04290546
000060 db dc 02 bd 90 a9 ea bb 8c 1e 8c 3d 7f 1d 7c bc
       -0.031948905 -0.0071613267 0.06841764 -0.015387892
000070 54 24 ed bc 16 a6 d0 3c 0f 44 ff bd b4 0b 22 b9
       -0.028947987 0.025469821 -0.12464153 -0.00015453884
000080 46 d3 74 bc dd 38 6a 3d 21 52 9a 3d c3 53 70 3d
       -0.01494295 0.057183135 0.07535196 0.05867363
000090 e9 22 57 bc e8 11 98 bb 7b ce f1 ba a7 76 db bc
       -0.013130882 -0.0046408065 -0.0018448377 -0.026789976
0000a0 3f 72 00 bd ed 83 da 3c 7a 7c c2 bc e9 fc 58 3b
       -0.031358954 0.026674235 -0.023740996 0.003310973
0000b0 2b 0c ab bd 62 a3 b4 3c 22 1e c3 3b ac ae 1e bd
       -0.0835193 0.022050563 0.00595452 -0.0387408
0000c0 b7 ad 39 3c d0 a1 06 bd 41 16 dc 3d 76 f5 14 bc
       0.011332921 -0.03286916 0.10746432 -0.009091726
0000d0 97 eb 80 3c 58 f8 5c 3c e0 19 35 3d fa a7 8d 3e
       0.015737338 0.013486944 0.04421413 0.27667218
0000e0 b1 35 ff 3c c0 3c f4 3d f9 c5 13 3e bb 08 fd bc
       0.031153532 0.1192565 0.1443099 -0.030887952
0000f0 c3 71 0c bd 9e 11 20 3d 31 e3 11 3d e8 d9 a8 3c
       -0.03428818 0.0390793 0.035617057 0.020611718
000100 c8 e8 37 3e a4 fa 74 bb 1f 92 4f bc c0 17 67 3c
       0.17959893 -0.0037380839 -0.012669115 0.014104784
000110 cf 75 9d bc 26 db 33 bc ed 21 e1 3b 43 64 77 3d
       -0.019221215 -0.010977542 0.0068704993 0.06039835
000120 95 1f 7e bd a4 7c ec 3d 99 9a fe 3d 7e 27 92 3c
       -0.062041838 0.11547211 0.12431831 0.017841097
000130 d3 6c dc 3d c3 61 82 3d 24 25 b6 3d d9 82 02 3e
       0.10762944 0.06366303 0.08893803 0.12745227
000140 b4 06 11 bd d4 25 d9 3c 04 7d 15 bc b8 7f 5e bb
       -0.035406783 0.026507296 -0.009124044 -0.0033950638
000150 ec 39 2c 3e 0b 0e 12 be 4d bb 66 3d 60 9d bd bc
       0.1681897 -0.1426317 0.056330968 -0.023146331
000160 b1 b9 2a bd 68 ae 26 3e b8 ef 8e 3d b7 01 87 3d
       -0.041680995 0.16277468 0.069793165 0.06592124
000170 70 ec 67 3d 1f 0c 33 bd f3 b5 9d 3d 42 75 1d 3d
       0.05662197 -0.04371273 0.0770072 0.038441904
000180 66 4f cf 3c ac 28 9e 3c e8 f4 1a bd a7 f2 0b 3e
       0.025306415 0.019306503 -0.037831217 0.13666783
000190 0f 4f 75 3d 84 a1 85 3d ab 75 03 3d d2 dc 14 bc
       0.05988985 0.06524947 0.03209464 -0.009085851
0001a0 85 02 37 bc 3e db fc bc 2b 7c 8e bc 0a d6 00 3e
       -0.011170034 -0.030866262 -0.017393192 0.1258165
0001b0 89 dd cb 3c c3 dc a6 bb e4 8d 8d 3d 34 1e c6 3d
       0.02488591 -0.005092235 0.06911829 0.096737295
0001c0 67 97 bd bd 55 f3 02 3e 49 e0 be bd 93 f8 2e bc
       -0.09257393 0.12788136 -0.09320123 -0.010679382
0001d0 2c 8d c5 3b f7 c8 d7 3d 02 5d 84 bd 99 31 d3 bc
       0.006028792 0.10536378 -0.06463052 -0.025780486
0001e0 a7 2b a8 3d f2 02 f4 3c 18 6e cd bc 06 63 20 3d
       0.08211451 0.02978656 -0.02507691 0.039156936
0001f0 15 2d 40 3e 91 17 b5 ba 9d 48 0a bd 14 17 70 bc
       0.18767197 -0.0013816227 -0.033760656 -0.01465394
000200 a4 76 6b 3c 30 96 27 3e 25 9c e4 39 79 49 4f 3e
       0.014371548 0.16365886 0.00043603886 0.20242871
000210 b7 47 7c 3d a3 49 c6 bb f6 00 b2 bc 4e 2f a7 bc
       0.06159183 -0.0060512586 -0.021728974 -0.020408299
000220 b3 ec e2 bc 1c b6 34 3d 0c 9a 86 bd a8 51 d2 bc
       -0.027700758 0.044118986 -0.06572351 -0.025673702
000230 c2 a9 d2 3d da 62 f2 3d 8e 17 07 3c 07 cf 04 bd
       0.10286285 0.11835261 0.008245362 -0.032424
000240 55 b9 5c 3b 6d 8a bb bc 5d 0f 94 bc e3 b4 45 bd
       0.0033679802 -0.022893155 -0.018073732 -0.04826821
000250 f1 13 01 3e fc 62 2a 3e e2 ff db 3c 08 6d ac 3d
       0.12605263 0.16639322 0.026855413 0.084192336
000260 5d fe e1 3d 18 46 6c 3c 95 36 fb 3d 3a 5b 4f bc
       0.11034844 0.0144210085 0.1226627 -0.012656027
000270 85 7c 0e 3d 4c c6 a7 3d 38 a6 94 3c c3 a1 89 3b
       0.03478672 0.08192119 0.018145666 0.0042001917
000280 e2 9a 07 bd d7 9d 25 ba b2 23 bc 3d f8 71 13 3e
       -0.033106692 -0.00063177705 0.09186496 0.14398944
000290 14 56 25 3e d6 25 b2 3c 48 0e c6 3c 6a 91 33 3a
       0.16146117 0.021746557 0.024176732 0.00068499765
0002a0 72 28 8d bb 28 15 37 3a e3 49 99 3d 7f 35 4a 3a
       -0.0043078 0.00069840485 0.07484796 0.000771366
0002b0 65 9a ee bb 3b de 4a bb 28 10 01 be ad 2e d2 3d
       -0.007281589 -0.0030955214 -0.1260382 0.10262809
0002c0 2e be c7 3d 1d 0b 7a 3d 26 dc f6 ba 08 a1 c9 3d
       0.09753071 0.061045755 -0.001883392 0.098451674
0002d0 96 fe 0f 3e c7 9e fc 3d 62 c4 62 3d 0d a3 54 bd
       0.1406196 0.12334972 0.055363066 -0.05191331
0002e0 2b 09 91 3d c3 74 43 3d 7b 9f 9b 3d 85 58 f9 bc
       0.07081827 0.047718775 0.07598778 -0.030437717
0002f0 4f b3 06 bd b1 0c 97 3d 39 84 54 3e 07 77 ea 3c
       -0.032885846 0.073754676 0.20753564 0.02862121
000300 41 b7 e1 bb ed d9 99 bd 3b 83 e6 bc de 91 0a bd
       -0.0068883006 -0.07512269 -0.028138747 -0.033830516
000310 22 79 3e bd 71 d6 d3 3d 7c 0e 03 bd 1a 5a 05 bd
       -0.04650224 0.10343636 -0.031996235 -0.03255663
000320 5a 02 e3 3d 51 e0 00 3d d9 03 bc bc a2 bb 2d 3d
       0.11084433 0.031463925 -0.022951053 0.04241527
000330 24 f2 d0 3d 36 66 c4 3d d6 58 14 bd 7d bf 87 3d
       0.10202435 0.09589808 -0.036217533 0.0662832
000340 0d 48 43 bd 36 e8 09 3e 25 83 52 3d 31 8e eb 3c
       -0.047676135 0.13467488 0.0513946 0.028754326
000350 34 6c b6 3d 17 38 ff 3d 26 63 f9 bc 8f 93 cd 3c
       0.08907357 0.1246187 -0.030442785 0.025094775
000360 55 b5 e3 3d 1f 02 78 3e 92 52 6b bd 6f ee 0b bc
       0.11118571 0.24219559 -0.057451792 -0.008540734
000370 66 20 10 3d 39 33 b2 3c 5b 1c f3 bc ac 72 54 39
       0.035187148 0.02175294 -0.029676607 0.00020260614
000380 92 ce e1 bc c9 75 26 bd 7d d5 9e 3d 86 2c f3 bd
       -0.02756432 -0.040639672 0.077555634 -0.118737265
000390 bf b5 e8 bc 0d 4a 72 3a e7 88 10 bd 91 03 2d 3d
       -0.028406976 0.0009242602 -0.03528681 0.04223973
0003a0 a3 0d ac 3d c3 62 77 bc 92 e3 8e be ac f5 bc 3d
       0.084010385 -0.01509923 -0.27907997 0.09226546
0003b0 9e 2c 85 bd 5b 63 89 3b 29 44 04 bd b2 21 cc bd
       -0.06502651 0.0041927523 -0.032291565 -0.09967364
0003c0 9c 99 fd bc 25 ea d8 3d 8a cd 0f be 1b 8b b2 bc
       -0.030957036 0.105915345 -0.1404325 -0.021794846
0003d0 b7 58 ce 3d 70 22 90 bc 57 75 a4 bc 25 42 ea 3d
       0.10075515 -0.017594546 -0.020075483 0.11438397
0003e0 bb 5f 1d bd ac d4 9e 3b 38 96 b7 bc f9 d3 bc bc
       -0.038421374 0.00484713 -0.022410497 -0.023050295
0003f0 3a 09 37 3d 5b 6a 17 3e 35 1e a1 3d 9f fb a2 bd
       0.044686534 0.14786665 0.0786709 -0.07958149

actor_net.2.weight f4 [256, 256]
000000 5e 52 b7 bd cb e2 2c be e1 75 f1 3c 4c 26 42 3d
       -0.08951257 -0.1688339 0.029475154 0.047399804
000010 0f 95 2e be 92 cd 67 3d 78 fb f4 bd 11 18 18 3a
       -0.17049049 0.05659253 -0.11962026 0.0005801926
000020 25 3e b5 bd 9f 72 19 be 5b e1 77 be 99 44 03 be
       -0.08849744 -0.1498513 -0.2420706 -0.12819137
000030 e3 98 37 3d 73 70 de 3d ef ce d0 bd e3 ba 5e bd
       0.04482354 0.10861292 -0.101957195 -0.054377448
000040 97 e1 36 3d 5c d7 fd 3d bf fc e8 3d 03 73 c2 bd
       0.044648733 0.12394592 0.113763325 -0.09494593
000050 36 f3 3f 3d 5a 8e ec bc 92 34 ae 3d 75 d5 9a bd
       0.046862803 -0.028876472 0.08506121 -0.07560245
000060 af 1d 04 3c 9a 3b 27 bd c8 35 2f 3d e6 87 ca bd
       0.008063718 -0.040828325 0.0427759 -0.09889202
000070 1c 52 9d 3e a3 68 fa 3d 63 a3 83 be 6e f1 33 bd
       0.30726707 0.12226989 -0.25710592 -0.043931417
000080 7d d7 ef be c5 c7 9a 3c e2 a4 c9 bc 66 14 79 be
       -0.46844092 0.018894086 -0.024614755 -0.24324188
000090 9a 89 44 3d 17 de f3 3d c4 d6 2f bb 7e ad 0f 3e
       0.04798279 0.11907595 -0.002683089 0.14031026
0000a0 8a 83 5d 3d d8 18 83 3d 6c 17 60 3d 85 aa 6e be
       0.054080524 0.06401223 0.054709837 -0.23307236
0000b0 a8 69 5d be 5f ed 21 be d8 0a b7 be b4 43 21 be
       -0.21622336 -0.15813206 -0.3575046 -0.15748483
0000c0 1c 07 e6 bc 42 83 17 3d fe a6 a4 be 25 81 e5 bc
       -0.028079562 0.03699041 -0.32158655 -0.028015682
0000d0 0d 4f b5 3d 80 02 3d 3e ed 12 c1 3c 8d ae 1f 3e
       0.08852968 0.18457985 0.023568595 0.1559393
0000e0 31 ea 92 3a 5a b1 54 bd 74 73 0b 3e af 53 a5 bc
       0.001120871 -0.051926948 0.1361826 -0.020181505
0000f0 91 83 a5 3d fc 3a 00 3e cd 7e b5 3c 12 8f fe 3d
       0.08081735 0.12522501 0.02215519 0.12429632
000100 7c f2 83 bd 79 a4 95 bd 50 99 85 3d 2b be c8 3c
       -0.064427346 -0.07306761 0.06523383 0.024504742
000110 c2 c6 0b bd 57 54 d4 3c 14 59 ce be db 44 cb bd
       -0.034125097 0.025919123 -0.40302336 -0.099252425
000120 df 31 99 3e f4 83 5d be fb 1b 05 be 78 49 7a bd
       0.2992086 -0.21632367 -0.12998955 -0.06110522
000130 5e f9 27 be 0a 0a e5 bd 5a f1 5c 3d 9a 54 f2 3d
       -0.1640372 -0.111835554 0.05394111 0.11832543
000140 c3 96 bb 3e dc bc 89 3d b9 85 87 3c 00 74 80 be
       0.3663846 0.06725475 0.016543256 -0.250885
000150 e3 8e 97 3d 82 fe 93 be ac a8 25 3d 1f 2c 31 bd
       0.074003 -0.28905112 0.04044406 -0.043254968
000160 5e d4 5a be 01 bd 00 3e 82 4f 47 3e 9a cd 31 be
       -0.21370074 0.125721 0.19463924 -0.17363587
000170 2c 6c e8 3b a7 14 08 bc 40 4f 42 be fb f7 a6 bd
       0.007092973 -0.008305705 -0.18975544 -0.08152767
000180 5b 13 80 be a6 26 45 bd 8c 63 af be dd dc f8 3d
       -0.25014767 -0.04813256 -0.34255636 0.12151501
000190 ff be 81 bc 57 ae 93 3c 69 77 63 3e 6c ad 94 be
       -0.015838144 0.018027468 0.2221352 -0.2903856
0001a0 cc f3 4f bc 9e be dd bb 58 12 9d 3b 26 81 05 3e
       -0.012692403 -0.006767108 0.0047934465 0.13037547
0001b0 27 d3 11 be 0f 2a 8d 3d b8 f5 6d 3e f0 e4 0a 3c
       -0.14240704 0.06892788 0.23238266 0.0084774345
0001c0 de 95 15 bd 72 3d a4 bd f7 d0 0b be a4 a2 c2 bc
       -0.036519878 -0.08019532 -0.13653933 -0.023759194
0001d0 60 8c 05 be 24 14 7d 3d 94 b8 b3 bc ad 10 ff bd
       -0.1304183 0.061786786 -0.0219386 -0.124543525
0001e0 86 13 f2 bd cf a8 11 be 3b 24 22 bd 3b d1 cf 3d
       -0.1182013 -0.14224552 -0.039585333 0.101473294
0001f0 e8 70 54 3d 2d 4a 48 be 01 cf 33 be af 3b a9 bc
       0.05186549 -0.19559546 -0.17559434 -0.020658342
000200 d7 3c 8e 3c a8 c8 0c 3c d3 a8 05 bd 08 ca 2b 3c
       0.017362995 0.008592762 -0.032631706 0.01048518
000210 46 13 8a 3d ef 63 48 3d 07 78 eb bd 03 86 22 3d
       0.06741957 0.04892343 -0.11497503 0.039678585
000220 51 24 b2 3c 40 90 7d 3c e4 2b 08 bc ca 56 03 3d
       0.021745833 0.015476286 -0.008311246 0.03206519
000230 40 e7 3d be a2 28 50 be 0c d0 81 be 70 bb b1 bb
       -0.18545246 -0.20328 -0.2535404 -0.0054239556
000240 4e 22 91 bd e7 4b 5d 39 c4 8c 66 bc 69 e7 64 be
       -0.07086621 0.00021104478 -0.014071647 -0.22353901
000250 b5 81 4c bf a7 33 7b 3d bd 59 7c 3d 32 f3 db bf
       -0.7988542 0.061328556 0.06160902 -1.7183592
000260 04 96 43 bf 8b 7b 17 be a0 5c 17 bf 20 7e 93 bd
       -0.7640078 -0.14793222 -0.5912571 -0.07201791
000270 c0 2d ad 3d 3a 83 e1 3d 8c 53 30 bd 4d af 6d 3d
       0.08455992 0.110113576 -0.043048427 0.058028508
000280 99 ab 3b 3e 4d 5c 4b 3c 72 a4 7b bd 0f a6 9b 3d
       0.18327178 0.012412143 -0.061436124 0.076000325
000290 42 f8 1d 3c ab c2 71 be 0c 59 c7 bd 6c 28 bf 3e
       0.009641709 -0.23609416 -0.09733781 0.37335527
0002a0 84 b1 0e be 7e a0 9c bd d1 55 8a 3c f7 89 8a be
       -0.13934904 -0.07647799 0.016886624 -0.27058384
0002b0 fb 61 c7 bf 46 74 32 bc 82 2c af 3d bb 76 f0 bd
       -1.5576776 -0.01089198 0.08553411 -0.11741396
0002c0 f8 a2 21 be 9a 39 c0 3d 16 4c ff 3c 53 40 3e 3c
       -0.15784824 0.093859866 0.03116421 0.011612016
0002d0 bc 07 a6 bd 0f 9e 97 be 53 b6 a0 bd f8 40 c8 be
       -0.08106944 -0.29612777 -0.078472756 -0.39112067
0002e0 d7 5b 35 3e d1 f0 a3 3d 38 f2 82 3d d5 2e d4 3b
       0.17710815 0.080049165 0.06393856 0.0064753094
0002f0 9e c5 2a bd 4d ad 82 3d 6a 5f 0e bd ea 94 b3 be
       -0.04169237 0.06380711 -0.034758963 -0.3507455
000300 56 bb 5b 3b 53 03 46 be e9 a0 0d 3d c1 cf 11 be
       0.003352841 -0.19337206 0.034577284 -0.14239408
000310 45 52 c5 3d 10 80 cf 3d ee 8d 58 be 20 d7 88 3d
       0.09634832 0.10131848 -0.21147892 0.06681657
000320 ae 9a 8a 3e 71 37 88 bd bf dd ca 3b a7 1f ec 3d
       0.27071136 -0.066511996 0.006190985 0.11529475
000330 a3 e8 b8 bd 36 44 e5 be 80 7b 4a bd a3 46 4d 3e
       -0.09028747 -0.44778603 -0.049434185 0.20046477
000340 b0 48 83 3d c8 de 82 bf cc 69 46 3e 22 f2 1a bd
       0.064103484 -1.0224237 0.19376296 -0.037828572
000350 71 c6 74 3e 2c 26 f3 3b 6c 53 83 bd 66 41 2b 3e
       0.23903824 0.007420322 -0.06412396 0.16724166
000360 33 5e 67 be ed a2 36 be ff 6d f6 bd 29 6a ef bb
       -0.22594528 -0.17835589 -0.12032699 -0.0073063564
000370 c3 7d 50 3d 97 ab 52 be 40 d1 9d bd fb a7 e3 3c
       0.050901186 -0.20573269 -0.07705927 0.02779006
000380 ab ee aa bc 64 b9 e3 bb 5c eb dc 3c af e4 0b be
       -0.020865759 -0.0069495905 0.026967697 -0.13661455
000390 4b af 10 bd 10 1b 0c 3d ae 88 4d bd 2f 9e b2 3d
       -0.035323422 0.034205496 -0.050179176 0.087215774
0003a0 4e a8 9b be 85 30 4b 3d 26 0c cc bc 53 b1 a0 3c
       -0.30401844 0.04960682 -0.024908137 0.019615805
0003b0 4d 73 9a 3e f2 20 4b 3c dc bf ed bc ea 1b 91 be
       0.30166093 0.0123979915 -0.02902215 -0.2834161
0003c0 15 31 08 be 4f ca 2b 3d 27 1d c2 be aa 2c 12 3e
       -0.13299973 0.041940983 -0.37912866 0.1427485
0003d0 ab ed 93 bc ed 12 41 39 8d a4 6e 3e ae 29 a1 3d
       -0.018057665 0.00018412965 0.23304959 0.07869278
0003e0 be 64 9a 3d 48 5b a4 3d 41 7a 92 bd 27 3e 24 3d
       0.07538746 0.08025223 -0.07152224 0.040098336
0003f0 2c a8 07 3e f5 d4 2d 3d 5e 94 f2 bd 52 cc 41 be
       0.13247746 0.04243942 -0.11844705 -0.18925598

actor_net.2.bias f4 [256]
000000 aa e8 9a 3d 4a f4 8e bd 68 bd 92 bd f1 50 57 3e
       0.075639084 -0.06980188 -0.071650326 0.2102697
000010 d0 0b 56 bd 63 69 3b bd 80 d6 fc 3d df e7 8d 3d
       -0.05225736 -0.0457548 0.123456 0.069289915
000020 6a ee 0c be 2b d3 ef 3d 0c d0 84 bd 4f 47 71 3e
       -0.13762823 0.11710199 -0.06484994 0.23562358
000030 fa 34 07 be d8 e1 be 3c d1 c5 65 3d ed 0e 3c bd
       -0.13203803 0.02330105 0.056096856 -0.04591267
000040 11 4d 79 bd aa b9 c0 bd d5 1f 48 bd b7 bc 68 3c
       -0.060864512 -0.094104126 -0.048858482 0.014205149
000050 73 c5 41 3d da 6c 04 3e fc c5 d4 3c 49 48 1a bd
       0.047307443 0.12932149 0.025973313 -0.037666593
000060 23 ed 8d 3c e2 15 e4 3d 37 2e ab 3d f3 d9 4e bd
       0.01732499 0.11136986 0.08358424 -0.05050082
000070 2e 8b 00 3e d0 7d cb 3d ee ff cd bc 4f 1a cd bc
       0.12553093 0.09936106 -0.02514645 -0.025036959
000080 db 3e 87 3d 68 a7 08 3e 1d ad a3 bc 18 c1 ac 3d
       0.066037856 0.1334511 -0.019980008 0.08435267
000090 3b 78 12 3e ad 5e 69 3e e8 5c 80 3d 76 9e 56 3d
       0.14303677 0.22790022 0.062677205 0.052397214
0000a0 a8 59 71 3d 31 ea a7 bb 8b 71 47 bc 0b 39 73 3d
       0.058923393 -0.0051243533 -0.012173067 0.059380572
0000b0 be c5 85 bd 86 a7 19 bd 75 60 4a 3b 80 bf 69 bc
       -0.06531857 -0.03751328 0.0030880247 -0.014266849
0000c0 c4 15 44 3d 31 9b aa 3d 0a 03 f9 bc 62 4b 08 3e
       0.04787232 0.08330382 -0.030396957 0.13310006
0000d0 25 d0 6b 3e 1f c2 23 3d 38 a1 f3 3d 42 e3 7b bd
       0.2302862 0.03998005 0.118959844 -0.061496027
0000e0 3e 7d 2e 3d 23 e8 76 3d 36 02 39 3d e6 8e 01 bd
       0.04259991 0.060279977 0.045168124 -0.03163042
0000f0 9c e5 13 3e 6c 32 91 bd d9 2c cf 3c 6f 04 b2 bd
       0.14443058 -0.07089695 0.02528994 -0.08692252
000100 6b 49 27 3e e0 4d b7 bc 95 b5 9f bd 74 1b 2a bd
       0.163366 -0.022376 -0.07798306 -0.041530088
000110 77 19 0a be b8 2b 48 3e 56 5c 0b 3d ba 70 b9 3b
       -0.13486277 0.19547927 0.034023605 0.00565919
000120 8b 15 8b 3d c6 9d 08 bd 7a f6 e3 3d 45 18 d3 3d
       0.06791218 -0.03335359 0.11130996 0.103073634
000130 64 9d d5 bd d0 7a 08 3e 2a 3d 40 3b da f3 60 bb
       -0.104304105 0.13328099 0.0029333332 -0.0034325034
000140 b0 ea a4 bd fb 76 18 3e 44 40 d4 bd de 08 15 3e
       -0.080525756 0.14889137 -0.1036382 0.14554164
000150 72 06 2f 3e 00 58 c8 3d 21 fd 07 3e 7b 09 1a 3e
       0.17092302 0.0978241 0.13280155 0.15042679
000160 c7 53 be 3a 10 3a 06 bd f6 f4 8b 3d 8b d6 04 be
       0.0014520817 -0.032770216 0.06833832 -0.12972467
000170 b7 84 a4 bd ab 84 ee 3d f9 a4 e6 bd 9d 35 f6 3c
       -0.08033126 0.11646398 -0.11261935 0.030054862
000180 d8 f4 46 3e 4c af 33 3e be 82 30 3e 38 78 96 bd
       0.19429338 0.17547339 0.17237374 -0.07347149
000190 21 86 88 3c 50 14 8d 3d 74 cd d8 3d 4b 3b eb bd
       0.01666552 0.0688864 0.10586062 -0.114859186
0001a0 22 40 87 bb 23 e0 2c 3e 31 59 11 3d be 69 94 bc
       -0.0041275183 0.16882376 0.03548545 -0.018116828
0001b0 04 d5 55 3e 97 17 e8 3c 5b 81 57 bd df 54 24 3e
       0.2088204 0.028331561 -0.052613597 0.16048001
0001c0 79 55 ba 3d 24 4f 79 bc 06 dc ad 3c 16 b1 1f 3c
       0.09098334 -0.0152166225 0.02122308 0.00974681
0001d0 32 61 f5 bd 67 6b 11 3d 2a b9 00 bd e9 6a a7 3d
       -0.11981429 0.035502817 -0.031426586 0.08174688
0001e0 18 eb 72 bd d1 53 73 bc aa 7a 0e 3c 30 27 b0 3d
       -0.059306234 -0.014851526 0.008696238 0.086012244
0001f0 a2 d2 32 3d ab 5a 86 3d ab 10 97 bd 92 c9 83 bc
       0.043657906 0.06560262 -0.07376226 -0.016087327
000200 b9 d7 34 3e 27 73 7d bd 5e 70 52 3e 31 c7 6e bd
       0.17660417 -0.061877396 0.20550677 -0.058295432
000210 4e 6b ed bd d6 2c 89 3d f4 17 7f bc bc 0b 9b 3d
       -0.11592732 0.06698005 -0.015569676 0.075705975
000220 ba 47 51 3d db dd b6 3c 9d f0 f7 3d cc 56 74 3d
       0.051093794 0.022322586 0.1210644 0.05965309
000230 00 7b ae 3d c2 61 69 3d ee 16 1d be a8 ce d9 3d
       0.08519554 0.056977995 -0.15340778 0.1063512
000240 3b a0 fc 3d d8 f3 dd bd a6 c6 9e bd cf af dd bd
       0.12335249 -0.10837525 -0.07752733 -0.108245485
000250 bf 83 bf 3c e3 30 90 3d 51 63 d5 bd 68 15 06 bd
       0.023378251 0.070405744 -0.10419334 -0.03273526
000260 6a 25 c6 3c a4 5d a1 bc c5 8e c1 3d 6f 8a 06 3e
       0.024187762 -0.019697972 0.09451059 0.13138746
000270 60 42 13 3d af 1b 66 3c d2 f4 ee 3d 4a b9 dc 3c
       0.035951972 0.014044686 0.116677895 0.026943821
000280 5d 03 00 3e ce 8d 1a 3c d2 5d 7c 3e ee b6 32 3d
       0.12501283 0.009433223 0.24645165 0.043631487
000290 db 44 83 3d 8d 1d af 3c 6b b2 ad bd 8f 7b 19 3e
       0.064096175 0.021376396 -0.08481296 0.1498854
0002a0 ae 8b da 3d ce 22 8c 3d 84 83 3a 3e f1 09 3e 3d
       0.10671173 0.06842576 0.18214232 0.0463962
0002b0 1e ad f4 3d 60 72 32 be 92 41 01 3e 04 0e 0a 3e
       0.11947082 -0.17426443 0.1262267 0.13481909
0002c0 e2 4c 19 bd 0b 9d 11 3e c2 e0 aa 3a 97 75 e4 bc
       -0.037426837 0.14220063 0.0013036954 -0.027888102
0002d0 f4 ac 0e be b2 d1 aa 3d ae 01 f5 3d ed 3b 78 3d
       -0.13933164 0.083407775 0.11963211 0.060604025
0002e0 54 ac 0f bd a7 40 a0 3d f6 56 a0 bd 2c 28 c3 3b
       -0.035076454 0.078248315 -0.078290865 0.0059557166
0002f0 73 27 ed bd 8e fc 15 bd 03 41 6d 3d 24 f0 5a 3d
       -0.1157979 -0.036617808 0.057923328 0.053451672
000300 db e7 13 3e ac 84 c8 3d 70 e1 00 3e 1d 14 a3 bd
       0.14443915 0.0979093 0.12585998 -0.07962821
000310 84 e3 76 bd c6 c7 21 3e 2b 98 00 bd 5e 6b 37 bb
       -0.06027557 0.15798864 -0.03139512 -0.002798758
000320 ab 0e f5 bc 12 0c 1f bd 68 e4 15 3e 41 ba 6d 3c
       -0.02991422 -0.03882987 0.14637911 0.014509738
000330 3e ae 92 3d d5 de 2c bd d1 3d 9a 3d 5c 43 e2 3c
       0.0716214 -0.042204697 0.07531322 0.02762001
000340 f9 58 17 3d 9a a2 fa bc 9e ad c3 3d b0 ba 78 bd
       0.036950085 -0.030595113 0.09554599 -0.060724914
000350 7a 77 c5 3d 4a 5b 86 bd f9 a4 4c 3e 03 00 85 3d
       0.09641929 -0.06560381 0.19984807 0.06494143
000360 1d 3c 91 bc 39 17 7d bc b6 f3 3b 3c 09 2c f0 3d
       -0.01772886 -0.015447431 0.011471679 0.11727149
000370 63 dd aa 3d bb cd ae 3d ec 2c 31 3e 82 cc 2c 3e
       0.083430074 0.08535334 0.17302293 0.16874889
000380 5c 78 68 3d c0 9c 40 bd bd 53 6c 3e 89 1b 78 3d
       0.05675541 -0.04702449 0.23078819 0.060573135
000390 3b df 75 bd ee 48 49 3e 8f 81 8e bc dd 7d 60 3d
       -0.060027342 0.19656727 -0.017395763 0.054807533
0003a0 bc bf 24 bc ae 81 36 3e de 9f df 3d 05 34 34 be
       -0.010055479 0.17822906 0.10919164 -0.17597969
0003b0 32 29 5f 3e 83 31 46 3e 60 05 0a bc 07 79 f9 3d
       0.21793059 0.19354825 -0.008424133 0.12181287
0003c0 0a c4 b5 3d 6a 1d 5d bd 07 35 dc bc 9f 7d a6 bc
       0.08875282 -0.05398313 -0.026880754 -0.020323573
0003d0 5a 11 52 bd ab 7d d4 3d 65 2d d0 bc e2 ab 61 3d
       -0.05128608 0.10375532 -0.02541227 0.05509556
0003e0 2d 53 98 3e ca 59 c1 3c 8d 8e b0 3d a5 b2 79 3e
       0.29750958 0.023602385 0.086209394 0.24384554
0003f0 94 8d d3 3c f0 66 b2 bd 15 7d 1d bc c9 5f 22 3e
       0.025824346 -0.0871104 -0.009612341 0.15856852

fc_mean.weight f4 [9, 256]
000000 f1 23 0d bf cd f8 00 3f 2c fe 8e bd e1 75 06 3d
       -0.5513297 0.5037964 -0.06982073 0.03282726
000010 ba 20 6a 3b 89 da b1 be 75 01 54 be 79 fe 20 3e
       0.0035725073 -0.34737042 -0.20703681 0.15722074
000020 16 96 81 3f 37 61 69 be 54 b3 20 3d 0d 6b 8b 3e
       1.0123928 -0.22790991 0.03923352 0.2723011
000030 8e 73 a5 3e 92 6b 1e be 15 43 a8 be 66 a0 48 3c
       0.32314724 -0.15470722 -0.3286368 0.012245273
000040 fa 08 f8 bd 1e 2c b5 bd ce 29 56 3f 04 af 14 3d
       -0.12111087 -0.08846305 0.8365754 0.03629972
000050 6e 6c 6d 3e d0 8a 74 bd 54 ff 82 3e 8b 6d 3c be
       0.23185894 -0.059702694 0.25585425 -0.18401162
000060 ba f0 43 be 0f 18 fb 3e b0 57 1a bf 2e 32 c7 3e
       -0.19134799 0.49041793 -0.6029005 0.38905472
000070 9e 81 1f 3e 59 c8 36 bd ab 5d b1 3e f3 b6 9a 3e
       0.15576789 -0.04462466 0.34641775 0.30217704
000080 21 a2 54 3e a2 e1 0a bd d6 f7 c0 3c 2a ed d8 3e
       0.20764972 -0.033906586 0.023555677 0.42368442
000090 cb 61 77 be 3f 3a 9d 3e 74 3f 8a 3e d4 8e aa be
       -0.24158399 0.307085 0.27001536 -0.33312094
0000a0 55 a8 ce 3d 0b 86 09 be d7 c3 22 3d 26 9e 0b bf
       0.100907005 -0.1343004 0.03973755 -0.5453819
0000b0 8d 40 57 3e 4c 2e 27 be ac 8b 5b 3c 08 95 79 3e
       0.21020718 -0.16326255 0.0134 0.24373257
0000c0 84 e5 66 be 34 3d c7 3e c1 d5 94 3d 1f 5b 77 3e
       -0.22548491 0.38913882 0.07267333 0.24155854
0000d0 45 fd 29 be 68 75 10 3f c5 71 46 3e 82 5a 9e be
       -0.16600521 0.5642915 0.19379337 -0.30928427
0000e0 6b 66 f0 be ff ed 3c bd 0b a0 42 3e e8 3e 11 3e
       -0.4695314 -0.04612541 0.19006364 0.14184153
0000f0 d6 12 17 3f f4 b0 bf 3d 38 6c 80 be 90 2b 23 3f
       0.59013116 0.09359923 -0.25082564 0.63738346
000100 93 42 66 3f b3 80 18 be 98 59 95 3c 1d d6 3a bd
       0.89945334 -0.14892845 0.018231198 -0.04561435
000110 ca c2 3a 3e f2 f6 cf bd 54 01 c8 be 53 82 61 3e
       0.18238369 -0.10154523 -0.39063513 0.22022371
000120 4c c7 9a 3c 35 8f cb 3e 4c 9f a4 3f f8 cd 0d bf
       0.01889386 0.39757696 1.2861114 -0.5539241
000130 20 e9 bc be 96 19 a5 3f f9 24 d6 3e 7f 7b cc bb
       -0.3689661 1.2898433 0.41825083 -0.006240308
000140 49 b1 9f 3e b1 0a b9 3e 97 fc 8e bc c0 66 d3 3e
       0.31189945 0.3614097 -0.017454429 0.4128933
000150 c6 5f 22 3e 47 55 e5 be e2 a6 ed 3e 08 b0 23 be
       0.15856847 -0.44791624 0.46416384 -0.1598512
000160 0c 1c 3e be ee b6 55 3d ae 01 05 3f 92 6b 46 3e
       -0.18565387 0.05217641 0.5195569 0.19376972
000170 a7 07 3f bf 0b 13 66 bf aa 51 18 3f 6d 2a 60 3e
       -0.7462105 -0.8987281 0.5949961 0.21891184
000180 24 ff d1 3e 4d d9 a0 bd 06 5f e3 3c 66 5c a5 3e
       0.4101497 -0.07853947 0.027755272 0.32297057
000190 53 e1 ef bd 00 96 aa bd 07 a6 0b bf ba 1c be 3e
       -0.11712899 -0.083293915 -0.5455021 0.37131292
0001a0 d4 a7 cd 3e e2 db 4d be de af 0b 3e 19 af 64 be
       0.40167105 -0.2010341 0.13641307 -0.2233242
0001b0 6c 6f fa 3e ce c1 16 3f 70 27 30 be 13 2e e3 be
       0.48913133 0.5888947 -0.17202544 -0.4437109
0001c0 de 4b 99 3e 5a 7c 70 be bc f2 6e be d4 70 ef bc
       0.29940695 -0.23484936 -0.23334783 -0.029228605
0001d0 74 d9 2c 3f d4 b5 e9 be f7 58 bc bc eb ea fa 3e
       0.6751931 -0.45646536 -0.02299164 0.49007353
0001e0 b5 b1 6e bd 7d 46 1c bf 9a 6e ea be 8c 16 a4 be
       -0.058274943 -0.61045057 -0.45787507 -0.32048452
0001f0 c3 03 89 3e a9 e8 a7 be f5 2b d9 be e9 47 55 be
       0.26760682 -0.32794693 -0.4241635 -0.20828213
000200 6a 2d a4 bc d1 22 c3 be f9 60 45 be 33 ac d1 bb
       -0.020041186 -0.381125 -0.19275273 -0.0063987016
000210 bd f2 ba 3e 15 eb cf 3d cf 96 97 3c 20 a1 20 be
       0.3651332 0.1015226 0.018504528 -0.15686464
000220 fd 3d 13 bf 06 69 67 3d 6c dc 20 be 67 e3 37 be
       -0.5751646 0.056496643 -0.15709084 -0.17957841
000230 ea 3b 5c 3b d1 b4 2d 3f 6a f1 94 3d c5 60 d0 3e
       0.0033605048 0.6785403 0.072726086 0.4069883
000240 ef b5 ce 3e d8 5b 81 bd 35 bf 5d 3e d8 69 20 3d
       0.4037318 -0.06316346 0.21654971 0.03916344
000250 aa 7c e5 3d 6c ea b9 3e 80 e8 f1 bd 28 5d f9 be
       0.112054184 0.36311662 -0.11811924 -0.48703885
000260 63 b0 4e 3e 4f e9 0d bf 8b c1 fb be 59 f2 ee 3d
       0.20184474 -0.55434126 -0.491711 0.11667318
000270 23 a3 62 3f b4 0a ef 3d c7 16 13 bf 7b 88 9b bd
       0.88530177 0.11671963 -0.5745663 -0.07594391
000280 55 6e 0b 3f 37 e4 2f 3e 63 4d dc 3e 30 9e be 3d
       0.5446523 0.17176901 0.4302779 0.093075156
000290 bd ba 09 bf 1d 4b 95 be c4 9b 5e 3e fb cb 18 3e
       -0.53800565 -0.2915887 0.21739107 0.14921562
0002a0 49 58 92 be a7 1e 11 3d 24 a7 c8 3e 42 32 ac 3e
       -0.2858298 0.035429623 0.39190018 0.33632094
0002b0 b3 40 c8 3e 31 d6 db 3e ec 8f 5c be 2b 34 c3 3e
       0.39111862 0.42936853 -0.21539277 0.38125739
0002c0 7d fe 15 3e 86 37 ba bd a9 b9 c7 bd 19 f4 df 3c
       0.14647861 -0.090926215 -0.09752209 0.027338075
0002d0 a0 de 8e bd 4a 8b e8 be 57 2a e7 3e d1 3a 45 3f
       -0.06976056 -0.4541877 0.4514949 0.7704287
0002e0 56 a6 e1 be 95 01 8f be 13 13 a7 bd 73 2e 26 3e
       -0.44072217 -0.27930894 -0.08157935 0.16228656
0002f0 c0 e9 ee be 1f eb e5 3e d9 b3 92 bd 90 99 30 be
       -0.46662712 0.44905946 -0.071632095 -0.1724608
000300 be 0e cc be 0a 88 36 bd e0 52 37 3e c0 5d 4e bf
       -0.39854997 -0.04456333 0.17902708 -0.806118
000310 ed 1e 11 bf 08 d6 84 3d 82 f3 94 be 9c f4 86 bd
       -0.56687814 0.06486136 -0.29092032 -0.06589624
000320 fc 33 a1 be a3 cc d1 bd a5 8f 25 bd 58 e0 3f be
       -0.31484973 -0.102441095 -0.040420193 -0.18737924
000330 95 b7 d9 bd 74 ee 7d 3e 55 49 5d 3d 2f 4b 9c be
       -0.106307186 0.24797994 0.054025013 -0.3052611
000340 90 dc 2b bd 2f 9b d4 3e 35 76 b6 be 4f 3e a9 3d
       -0.04195839 0.41524646 -0.3563706 0.082638375
000350 97 e4 21 3d db b8 e4 be ee e4 cf 3e d5 1d 53 be
       0.03952464 -0.44672284 0.40604347 -0.20616849
000360 10 18 85 be 6e 7a 6f be d8 d6 a8 3e 21 70 d9 3e
       -0.2599492 -0.23386547 0.32976413 0.4246836
000370 81 a2 66 3c 3a 4f b6 be ac b0 a1 bd 42 20 db be
       0.01407683 -0.3560732 -0.078950256 -0.42798048
000380 f6 61 9b 3d 25 db 6e 3e 04 63 bc 3e ee 31 0d bf
       0.07587044 0.23325785 0.36794293 -0.5515431
000390 4b a4 d2 3e 83 10 8b be c8 a1 fc be 4b b9 38 be
       0.4114097 -0.27161035 -0.4934218 -0.18039434
0003a0 65 d6 73 bd 31 96 2f 3e 45 03 3a 3e 7c 9e ed 3e
       -0.059530634 0.17147137 0.1816531 0.46409976
0003b0 d6 d5 08 bf 66 99 42 be 71 a3 9d bc 73 b7 33 3d
       -0.5345129 -0.1900383 -0.019242974 0.043876123
0003c0 23 12 d6 be 23 2f 27 be e7 a9 bc bd 50 82 8f be
       -0.41810712 -0.16326575 -0.09212094 -0.28029108
0003d0 92 18 50 3d 8f a2 24 3e 77 58 5a 3d 53 38 cc be
       0.050804682 0.16077636 0.053307023 -0.39886722
0003e0 58 55 35 3e fd 1f 35 be c8 28 cc be b1 89 07 3e
       0.17708337 -0.17687984 -0.39874864 0.13236119
0003f0 a3 4f 72 bf df 9f 4a 3e cb d3 90 be 17 bc 01 be
       -0.94652766 0.19787548 -0.28286585 -0.12669407

fc_mean.bias f4 [9]
000000 29 83 0a 3e e3 ef b7 3c 1e d4 41 bd e1 dd 9d bd
       0.13526596 0.022453254 -0.04732143 -0.07708336
000010 53 32 bd bd 9d aa 35 3c af 55 83 bc db 1b d8 b9
       -0.09238114 0.011088041 -0.016032068 -0.00041219484
000020 00 7f 74 3d
       0.05969143

fc_log_std.weight f4 [9, 256]
000000 a0 80 ae 3c bc 88 46 3c 2c 89 98 ba f7 b5 cb bb
       0.021301568 0.012117561 -0.001163756 -0.0062167603
000010 0d e4 26 bc 8e a0 4e 3b f8 6b 47 bc 19 13 1b bb
       -0.0101862075 0.0031528804 -0.012171738 -0.0023662506
000020 07 b1 7c 3c 11 33 6b 3c 80 df 34 3b 61 0c b3 bc
       0.015423066 0.014355437 0.0027599037 -0.021856489
000030 b6 8e 3d bc e7 3c c9 39 7f e3 bb 3c 61 50 2c bc
       -0.0115696695 0.00038383083 0.022935627 -0.010517211
000040 42 10 97 3c f2 ff 2e bc a1 6b da bc 00 f4 85 bc
       0.01844037 -0.010681139 -0.02666265 -0.0163517
000050 d4 97 88 3c e4 d9 0b bc c1 21 43 3c 6a 77 5f bb
       0.01667396 -0.008535836 0.011909903 -0.0034098276
000060 86 a0 22 3b ed 05 7a bb 53 fe 7a 3d 6d 86 d5 bc
       0.0024814918 -0.0038150505 0.0612777 -0.026065076
000070 6b 18 cc b9 3f 2b 15 3d 84 34 de bc cf 4c 4a 3c
       -0.00038928105 0.036418196 -0.02712465 0.012347414
000080 fd ea 08 bc 7e a1 89 3b ff a6 4a 3b 8e 49 ad bc
       -0.008356807 0.0042001596 0.0030922291 -0.021153238
000090 9b 6b cd 3b ae 6c 88 3c 7c 0b d2 bb d8 7c b4 3a
       0.006268931 0.016653385 -0.0064100605 0.0013770116
0000a0 f4 60 5b 3c 16 bc 8d bc 64 6a 15 bb 42 1b 45 bd
       0.013389815 -0.0173016 -0.002279901 -0.0481217
0000b0 0c 67 5b bc ca 69 ac bb 82 bb 2a 3b 17 ab d4 3c
       -0.0133912675 -0.0052616345 0.0026051705 0.025960488
0000c0 c0 68 52 3b 3a a2 93 bb 7e fc 37 bc ef de 04 bc
       0.0032105893 -0.004505423 -0.011229632 -0.008109792
0000d0 8c 6d 9d 3c 1f 39 7a 3d 50 0d dc 3a 25 46 fb bb
       0.019217275 0.06108963 0.0016788635 -0.007668274
0000e0 23 d5 2d 3b 62 10 bc 3c ac f3 72 bc c6 0b 0a 3c
       0.0026524744 0.02295703 -0.014828604 0.008425659
0000f0 46 54 93 bc 45 ae 71 3b 7c f1 b9 3c 71 a7 23 3c
       -0.01798452 0.0036877554 0.022698157 0.009988652
000100 9b f5 97 3d ab 34 79 3c 13 8a 93 3a 3e 34 5d bc
       0.074198924 0.015210311 0.0011256359 -0.013501225
000110 8d f5 1d bc f5 bd 1a bc 47 c0 79 3c 5a 8d 96 bc
       -0.009641063 -0.009444703 0.015243596 -0.018377949
000120 35 dc a7 3c 2c 59 8b 3c c3 2b b6 3d 7c 7f f2 3c
       0.020490745 0.017010294 0.08895066 0.029601805
000130 47 5e a2 bd 33 29 b6 3d 11 0d 6f bb 4b ea 9c 3c
       -0.07928138 0.08894577 -0.0036476294 0.019154688
000140 4f 2c 17 3b 02 7c 17 3b c1 a7 49 bc 1e 7f da bc
       0.0023067181 0.0023114686 -0.012308062 -0.026671942
000150 40 0b 26 3a e9 a1 a4 3c 1c 06 e9 3c 93 eb 40 bc
       0.0006334074 0.020096736 0.028445296 -0.011774915
000160 7d c8 1a 3b 3a 37 e0 3c 52 a7 a0 bc 66 90 c1 ba
       0.0023618035 0.027370084 -0.019611035 -0.0014767766
000170 eb 0e 02 3c 2b c9 4a 3d cf 4d 45 bd 52 d7 d7 bb
       0.007938127 0.049508255 -0.048169907 -0.0065869475
000180 d6 2e a2 3a 77 67 bb 3c e7 4d 2a bd 8c 82 aa bc
       0.0012373577 0.022876484 -0.0415782 -0.020814203
000190 3d 6c 4f 3c 38 df 29 3c de 94 a9 3c e2 57 26 bc
       0.012660083 0.010368161 0.020700868 -0.010152789
0001a0 13 72 81 38 04 36 48 3a 69 42 d8 bc 83 fe 52 bc
       6.172447e-05 0.00076374435 -0.026398854 -0.012878063
0001b0 c0 0c b3 bc 70 a5 10 3d 71 b3 87 bb 62 7d b3 bc
       -0.021856666 0.035314023 -0.004141264 -0.021910373
0001c0 a4 d7 9a bb 35 84 1e 3b 8e 16 11 bc b1 e7 79 bc
       -0.0047254134 0.0024187688 -0.008855475 -0.015252993
0001d0 cb 00 80 bc f1 93 35 3c a0 0a 4b 3b 2c 5c 00 3d
       -0.015625378 0.011082635 0.0030981675 0.031337902
0001e0 e8 fe 12 bd 84 7b e5 3c 43 d1 94 3c 4e 60 95 3c
       -0.03588763 0.028012998 0.01816619 0.018234398
0001f0 a7 3f 7c 3c cf ce 41 bd 1b cb a8 3c 43 83 0e 3d
       0.015396035 -0.04731637 0.02060466 0.03479315
000200 d3 e3 24 3c 76 db ae 3a fb 9b 07 bc 3a f7 b7 bc
       0.010064083 0.0013340551 -0.008276935 -0.022456754
000210 64 7d b4 3a 52 3a 1f bc 2a 10 a7 bc 6c 77 9e 3c
       0.001377028 -0.0097184945 -0.02039345 0.019344054
000220 36 92 d6 38 cf ae 63 3c ca 13 95 3c de 8c ba 3a
       0.00010231549 0.013896658 0.018197913 0.0014232656
000230 99 53 16 bc a9 f8 23 bd de 96 26 3c ad be a8 3d
       -0.009175205 -0.040032063 0.0101678055 0.082394935
000240 d7 9c ac bc 9b d2 6b bc 9a bc 96 bc 77 5d 55 3c
       -0.02107088 -0.014393474 -0.01840048 0.013022772
000250 4e 4d 09 bb 07 ca e7 bb 7e 16 bd 3a c4 bd 29 3c
       -0.0020950618 -0.007073644 0.0014426259 0.010360185
000260 75 5c fa b9 99 e5 1c bb 31 de 20 3d 27 2c 9a bc
       -0.00047752602 -0.0023940562 0.0392744 -0.018819882
000270 6b 6b e2 3b 7b c1 70 ba 4a c5 3a 3d 45 53 06 bd
       0.006909778 -0.0009184104 0.045598306 -0.032794256
000280 30 0a 88 bb e2 9a 51 39 fc d6 b8 bc e4 88 14 bc
       -0.004151605 0.00019989492 -0.02256345 -0.00906584
000290 3c 1e 4b bc c9 4b 6d 3c 66 80 3d 3c 3e cb 16 bd
       -0.012397345 0.014483401 0.011566257 -0.03681492
0002a0 d2 23 b0 bc c9 70 86 39 e1 a7 39 3c 67 10 d9 39
       -0.021501455 0.00025642503 0.011331529 0.00041401686
0002b0 41 55 0f 3d 90 72 07 bd 55 82 54 bc 73 b6 65 3b
       0.034993414 -0.03306824 -0.012970527 0.0035051375
0002c0 62 24 fd bb 36 1a e9 3b 19 2e f4 ba 22 b3 84 3c
       -0.0077252844 0.0071137203 -0.0018629461 0.016198698
0002d0 11 2b 29 bc 70 ca db bc c3 50 06 bc 6c 92 f2 3c
       -0.010325209 -0.026829928 -0.008197966 0.029610835
0002e0 54 e1 16 bc 78 4b 83 3c 4a 0e 20 3d e6 eb dc bb
       -0.009208996 0.016027197 0.039076127 -0.0067419885
0002f0 e0 f9 29 3c 80 83 c7 bb 5a 4a 9b 3c 8a 7d 84 3d
       0.010374516 -0.006088674 0.018956352 0.06469257
000300 84 42 0f 3d c5 13 94 3c 70 fa 78 3d 16 28 b9 3b
       0.034975544 0.018075833 0.06078571 0.0056505306
000310 07 a1 fd 3b dc bb 3f 3c d0 e1 c3 3c 7d 58 e6 39
       0.007740143 0.011702504 0.023911387 0.00043934947
000320 a2 ab 8f bb 04 87 22 3c b9 e8 46 bc 6a e5 a5 3a
       -0.004384474 0.009919886 -0.012140446 0.0012656872
000330 ac ed ca 3c 54 96 6d bb c3 2e 9e 3c 43 ef 3a 3b
       0.024771534 -0.0036252933 0.019309407 0.0028523959
000340 a1 71 06 bb d7 8b b2 3c 2e 05 60 3c f3 bd b8 3c
       -0.0020514505 0.021795196 0.01367311 0.022551512
000350 27 fa e8 bb 33 ed 03 bd 34 50 2f bc 61 13 ed bb
       -0.0071098986 -0.032208633 -0.010700274 -0.007234976
000360 b3 9c 1f bb d6 a5 9e bb 5f b3 1a bc e5 d0 b5 3c
       -0.0024354875 -0.0048415465 -0.009442179 0.022194335
000370 c0 3f 21 3c bf 1b b9 bb 19 58 c2 b6 49 f6 17 bc
       0.009841859 -0.0056490595 -5.7919065e-06 -0.009275028
000380 e8 67 9d bc eb 3f 9f 3a f9 12 6c 3c bf c2 e5 3c
       -0.019214585 0.0012149786 0.01440882 0.028046964
000390 22 91 0a bc e6 d0 b9 3c 72 80 b5 3c 90 fd 02 3c
       -0.008457454 0.022682618 0.022155974 0.007995024
0003a0 98 86 3a ba 73 ae 9c 3c 6c 6f 27 bd 3b 8b bf 3b
       -0.0007115393 0.019126153 -0.040877745 0.005845455
0003b0 bd 2f 77 3b a1 fc 9c bd 71 77 e0 3b 18 5d d3 bb
       0.0037717663 -0.07665373 0.006850176 -0.0064503066
0003c0 1a 03 4c 3c a8 7e 41 3c 6a 0c cc 3c 10 41 3d 3c
       0.012451911 0.011809982 0.024908263 0.011551157
0003d0 ff b6 ad 3c 94 9c 19 bc 42 92 48 3c 02 b9 c1 3c
       0.021205423 -0.00937571 0.012241902 0.023647789
0003e0 89 ee 72 3c 0c 8a f6 3a b0 09 bd bb b4 fc 38 bc
       0.014827379 0.0018809452 -0.005768977 -0.011290718
0003f0 3c 88 9b 3d ef 25 39 3a 8a 94 40 3c 2c 3c 64 3c
       0.07594344 0.00070628425 0.0117541645 0.013930362

fc_log_std.bias f4 [9]
000000 6f c6 4b 3c 84 0d 15 3d 81 6c ae be b2 a4 34 3d
       0.012437447 0.036389843 -0.34067157 0.04410238
000010 d2 85 82 3d b3 f4 7b be dc 5e aa 3b d6 57 6c 3d
       0.063731804 -0.24605064 0.0051992964 0.057700954
000020 73 6b 50 be
       -0.20353489
