CausalWorld/Models/pixel_Q.pth (torch, 757313 bytes, 10 tensors)

q1_net.0.weight f4 [256, 109]
0	0x3d9ba168	0.07599145
1	0x3c898c0b	0.01679041
2	0xbc1146de	-0.008866994
3	0xbb716986	-0.0036836579
4	0xbb42d271	-0.0029727484
5	0xbb76b335	-0.0037643437
6	0xbb5effd6	-0.0034027002
7	0xbd8ae780	-0.06782436
8	0x3c7b1a26	0.0153260585
9	0xbc1d96df	-0.00961849
10	0xbbecd064	-0.0072269905
11	0x3d3d233a	0.046176173
12	0xbc69c4e4	-0.014268134
13	0xbb890df7	-0.004182573
14	0xbb96ad02	-0.004598261
15	0xbbc3e5ab	-0.0059783063
16	0x3a618141	0.0008602329
17	0xbc4dec3a	-0.012568528
18	0xbbe48268	-0.0069735534
19	0xbc0592fd	-0.0081527205
20	0xbbef0340	-0.0072940886
21	0x3b76f723	0.0037683926
22	0x3c5619fa	0.013067717
23	0x3b026d55	0.0019901593
24	0x3afb9850	0.0019195173
25	0xbb5b261a	-0.0033439458
26	0xbd4c15d9	-0.049825523
27	0xbdf676ab	-0.12034353
28	0xbc3ecfcd	-0.011646223
29	0xbbcba666	-0.0062149046
30	0xbc979966	-0.018505763
31	0xbc7f946c	-0.015599351
32	0xbd228df0	-0.039686143
33	0xbcdb1b60	-0.026746452
34	0xbc7ef040	-0.01556021
35	0x3e17f3fc	0.14839166
36	0x3c4e9df2	0.012610899
37	0xbcc33db8	-0.02383314
38	0xbc154ca6	-0.009112513
39	0xbc5e6fb9	-0.013576441
40	0x3c47a3a5	0.012185012
41	0xbca86db4	-0.020560123
42	0xbc8b3bea	-0.016996343
43	0xbbcd8c28	-0.0062728114
44	0x3b7c811b	0.0038529101
45	0xbbab3671	-0.005224996
46	0xbc194880	-0.009355664
47	0xb9a5567e	-0.00031535694
48	0x3e18d914	0.14926559
49	0xbc4d3236	-0.012524178
50	0xbd2a127d	-0.041521538
51	0xbdc96b31	-0.09834898
52	0xbc11a2e6	-0.008888936
53	0x3c9fe65c	0.019519024
54	0xbdf11812	-0.11772169
55	0xbc12955a	-0.008946741
56	0xbc60f3c1	-0.01372999
57	0x3d009c3d	0.031399
58	0xbc857ca5	-0.016294787
59	0xbc208353	-0.009796935
60	0x3cf4237a	0.029802073
61	0xba939940	-0.0011260882
62	0xbc0cde89	-0.008597978
63	0xbc96078c	-0.018314146
64	0xbccc7103	-0.024956232
65	0xbd630768	-0.055426985
66	0xbc89dc44	-0.016828664
67	0xbb653a2a	-0.0034977295
68	0xba927120	-0.001117263
69	0xbdfc9ac4	-0.12334207
70	0xbd60c85d	-0.05487858
71	0xbbd30137	-0.006439354
72	0xbbc0c380	-0.0058826804
73	0xbc03feee	-0.008056385
74	0xbcb9bbf2	-0.022672627
75	0xbdfa8196	-0.12231748
76	0xbac759ff	-0.0015209316
77	0xbbbd7ef4	-0.0057829563
78	0xbb7d947d	-0.0038693242
79	0x3dcde2ef	0.1005305
80	0xbbc4ad31	-0.0060020913
81	0xbb5bf822	-0.0033564647
82	0xbb8a3b8c	-0.0042185243
83	0xbc536271	-0.012901888
84	0x3c850875	0.016239384
85	0x3dd9bda6	0.10631876
86	0x3b354acd	0.0027662993
87	0x3939a9d0	0.00017706235
88	0x39ad3f16	0.00033044134
89	0xbe0361ab	-0.12830226
90	0xbc70a942	-0.014688792
91	0xbc960112	-0.018311057
92	0xbc8d79c7	-0.017269982
93	0x3d84a746	0.064772174
94	0xbc8d9919	-0.017284917
95	0xbca3f177	-0.0200126
96	0xbcb4098f	-0.021977214
97	0x3c8c4074	0.017120577
98	0x3da110fe	0.07864569
99	0x3d364746	0.044501565
100	0x3da84114	0.08215538
101	0x3d18460e	0.037176184
102	0xbd4d7b80	-0.050166607
103	0xbc9f2d83	-0.019430881
104	0x3dbc26a0	0.09187055
105	0xbe398569	-0.18117298
106	0xbcb29845	-0.021801123
107	0xba24c7f1	-0.0006285897
108	0x3e180039	0.14843835
109	0x3b560b59	0.0032660572
110	0xbbe9ff56	-0.007141034
111	0x3a3d1048	0.0007212204
112	0xbc390f65	-0.011295174
113	0x3bd4035c	0.006470127
114	0xbad58726	-0.0016290888
115	0xbb89ad78	-0.0042015873
116	0x3c55d747	0.013051814
117	0xbe8553e6	-0.26040572
118	0x3bf68a76	0.00752383
119	0x3b1d03d4	0.002395858
120	0x3d6cc6e3	0.05780686
121	0xbc7fdca1	-0.015616567
122	0xba9f3eff	-0.0012149512
123	0x3b5266b1	0.0032104666
124	0x3bcf7c47	0.0063319537
125	0x3c9e526b	0.01932641
126	0xba5d04de	-0.0008431206
127	0x3b903e91	0.0044019897
128	0xbbb89153	-0.0056325584
129	0xb83402fc	-4.2918124e-05
130	0xbbc2f505	-0.0059496188
131	0xbd8048f1	-0.062639125
132	0x3b13d02d	0.0022554502
133	0x3b4ae0f9	0.0030956848
134	0xb8e0f7e1	-0.000107273234
135	0xbe59a528	-0.21254408
136	0x3a5f01ae	0.0008507025
137	0xbc77a2e8	-0.0151145235
138	0xbc475031	-0.012165115
139	0xba40dbc9	-0.0007356969
140	0x3c16b75f	0.0091989925
141	0xbc274667	-0.010209656
142	0x3bfea534	0.0077711586
143	0xbbe7455f	-0.00705783
144	0xbdc837d6	-0.09776275
145	0x3c5fbc14	0.013655681
146	0xbc2645f3	-0.010148513
147	0x3b2b0278	0.0026094
148	0x3d21da74	0.039514974
149	0x3b3c1d54	0.0028704004
150	0xbba85d96	-0.0051381094
151	0xb975cee0	-0.00023442088
152	0xbb3fca01	-0.002926469
153	0xbba15413	-0.0049233525
154	0xba420b92	-0.0007402237
155	0xba1c4c18	-0.00059622666
156	0xbbe9c8f2	-0.0071345503
157	0xbd617e5c	-0.055052146
158	0xbb04cb54	-0.0020262795
159	0x3bf004bc	0.007324783
160	0xbd3dd5ed	-0.046346594
161	0x3ba38d6a	0.004991223
162	0x3a539d49	0.00080724485
163	0x3e1ad8cc	0.15121764
164	0x3c37d45a	0.011220062
165	0x3c3f35c0	0.01167053
166	0x3ca82656	0.020526092
167	0x3bd616f9	0.0065335003
168	0xbbac0512	-0.005249628
169	0xbd9e2a84	-0.07722953
170	0xba07fe0e	-0.00051876984
171	0x3c169c04	0.00919247
172	0xbd4067eb	-0.046974104
173	0x3e032a9f	0.12809227
174	0xbdc16727	-0.09443503
175	0xbc177ed0	-0.009246543
176	0xbc723ee6	-0.014785504
177	0x3d6903bd	0.05688833
178	0xbac69c57	-0.0015152794
179	0xbc1ccb6d	-0.009569985
180	0x3b174c93	0.0023086413
181	0xbb8349e7	-0.0040066126
182	0xbb6ca337	-0.0036108026
183	0xbc223d0f	-0.009902253
184	0x3e6f9b52	0.23399094
185	0x3af1aa9d	0.0018437688
186	0xbb90eef6	-0.0044230176
187	0xbbcbd7ef	-0.0062208096
188	0xbd322694	-0.043493822
189	0xba905ad0	-0.0011013392
190	0x3b7b7f0d	0.0038375289
191	0xbc229924	-0.009924207
192	0xbbd6a42b	-0.006550332
193	0xbd028747	-0.03186729
194	0xbd2ab335	-0.04167481
195	0x3a9e6d7f	0.0012087076
196	0xba1aaf65	-0.00059007696
197	0x3b6b41a1	0.0035897272
198	0xbc8a355c	-0.016871147
199	0xbb976ebd	-0.0046213553
200	0x3bf18b1e	0.0073713204
201	0xba6895dc	-0.00088724284
202	0x3d02c701	0.031928066
203	0xbb4404f0	-0.002991017
204	0x3b72d7de	0.0037054936
205	0x3aa1d390	0.0012346376
206	0xbce1dd15	-0.02757124
207	0xbd3d0963	-0.04615153
208	0x3db248e2	0.087053075
209	0xbc24e9b3	-0.010065484
210	0x3cee06bd	0.029055947
211	0x3d552da7	0.05204549
212	0xbdb33d91	-0.08751977
213	0x3d41d978	0.047326535
214	0xbc9728b7	-0.018452032
215	0xbd50519d	-0.050859082
216	0xbc9f9fd5	-0.019485394
217	0x3d3e0f78	0.04640147
218	0xbd98358e	-0.0743209
219	0x3cb93d32	0.022612188
220	0xbbe74a63	-0.007058428
221	0x3c14c1aa	0.009079376
222	0x3c113283	0.008862141
223	0xba1b6262	-0.0005927441
224	0xbae21244	-0.0017247875
225	0xbee57ae1	-0.44820312
226	0xbd350d50	-0.04420215
227	0x3a4e952c	0.00078805047
228	0x3be13cde	0.006873711
229	0xbcf74778	-0.030185446
230	0x3c24d3ff	0.010060309
231	0x3c9eccf6	0.019384842
232	0x3cbe3173	0.023216939
233	0x3c965d79	0.018355118
234	0x3c6a8ebd	0.014316258
235	0xb9d8c9af	-0.00041348996
236	0xbb8e696d	-0.004346064
237	0x3c1f57ca	0.00972552
238	0x3c790613	0.015199202
239	0x3ba19c93	0.004931995
240	0x3a823237	0.0009933178
241	0xbb1b5fbf	-0.0023708192
242	0xbdc4c884	-0.09608558
243	0x3c50c720	0.012742788
244	0xbd00ba6c	-0.031427786
245	0xbe5ab245	-0.21357067
246	0xba3d596e	-0.0007223104
247	0x3c0a256c	0.008431774
248	0x3bd8b0e3	0.0066128834
249	0x3a532c61	0.0008055624
250	0x3d06487a	0.032783963
251	0xbb00f649	-0.0019678047
252	0x3cb63183	0.022240406
253	0xbc00d65b	-0.007863606
254	0x3d7f9e2f	0.062406715
255	0x3c38a74b	0.0112703545

q1_net.0.bias f4 [256]
0	0x3e739092	0.23785618
1	0x3ea890f0	0.3292308
2	0x3e05c55a	0.13063565
3	0x3e2a37dd	0.16622873
4	0x3e62258d	0.22084637
5	0x3e505927	0.20346509
6	0x3e5dc938	0.2165879
7	0x3df97713	0.12180915
8	0x3e1cdf04	0.15319449
9	0x3e0220f8	0.12707889
10	0x3d1ff9e7	0.039056685
11	0x3e9c256b	0.30497298
12	0x3de6d667	0.11271363
13	0x3e9e7676	0.30949754
14	0x3c6cd299	0.014454507
15	0x3e6b1986	0.22958955
16	0x3dee196d	0.11625943
17	0x3e24f7c1	0.16110136
18	0x3e650a9d	0.2236733
19	0x3e812765	0.25225368
20	0x3e1124d7	0.1417421
21	0x3cae4dfd	0.021277422
22	0x3d429d9a	0.04751358
23	0x3e1932b4	0.14960748
24	0x3e640fba	0.22271624
25	0x3e15bf1b	0.14623682
26	0x3e6efa1b	0.23337595
27	0x3e9bb784	0.3041345
28	0x3e08a6c7	0.1334487
29	0x3e32cf03	0.17461781
30	0x3e031ffe	0.12805173
31	0x3df8fa4d	0.12157116
32	0x3d8acfe8	0.06777936
33	0x3d86442f	0.06555974
34	0x3e1e741a	0.15473977
35	0x3e3bbebd	0.1833448
36	0xbda2bdc8	-0.07946354
37	0x3d9e14d6	0.07718818
38	0x3dec9d40	0.115534306
39	0x3ec6b95a	0.38813287
40	0x3e3dbb7d	0.18528552
41	0x3e177a4d	0.14792748
42	0x3e7ddeb8	0.24791992
43	0x3e467183	0.19379239
44	0xbd20c477	-0.039249863
45	0x3edaf0fe	0.42761987
46	0x3e3e2f9d	0.1857285
47	0x3dc6afd9	0.09701509
48	0x3e7b3445	0.24531658
49	0x3e4e4b5e	0.20145938
50	0x3ee4912b	0.44642004
51	0x3e3c7b54	0.18406421
52	0x3e364c60	0.17802572
53	0x3e8a7c82	0.27048117
54	0x3e41301b	0.18866007
55	0x3dc79f8b	0.09747227
56	0x3edc257e	0.42997354
57	0x3e5b50ea	0.21417585
58	0x3e428b1e	0.18998381
59	0x3e618b41	0.22025777
60	0x3e3ba378	0.18324077
61	0x3df3ee0e	0.1191064
62	0x3e1532c6	0.1457015
63	0x3e95ef06	0.29283923
64	0xbd020d88	-0.031751186
65	0x3e221d10	0.15831399
66	0x3e9362bf	0.28786275
67	0x3d01a79d	0.03165399
68	0x3e98f9af	0.29877993
69	0x3df1207b	0.11773773
70	0x3e3b5b79	0.18296613
71	0x3e803888	0.2504313
72	0x3ddea567	0.10871392
73	0xbd4cf85f	-0.050041553
74	0x3d3038ec	0.043023035
75	0x3e81cb87	0.25350592
76	0x3e0c4a99	0.13700332
77	0x3e5a4b60	0.21317816
78	0x3e98c45d	0.29837313
79	0x3e1f8f97	0.15582119
80	0x3e59869c	0.21242756
81	0xbccab544	-0.024744637
82	0x3e1f4d19	0.15556754
83	0x3e32a125	0.17444284
84	0x3e7a2e3c	0.244317
85	0x3e875b16	0.2643668
86	0x3d07ec6b	0.03318445
87	0x3e0b4ecf	0.13604282
88	0x3e7f4c31	0.24931408
89	0x3e038085	0.12841995
90	0x3c2c116d	0.0105022015
91	0x3e4f2940	0.2023058
92	0xbe4a01c0	-0.1972723
93	0x3e818b6f	0.25301692
94	0x3e9126ed	0.2835001
95	0x3e4529d1	0.19254233
96	0x3db4b627	0.08823805
97	0x3e95bf34	0.2924744
98	0x3e3365a7	0.17519246
99	0x3e2a74f6	0.1664618
100	0x3e45e563	0.19325785
101	0x3e456bb4	0.19279367
102	0x3e0d3d63	0.13792948
103	0x3e59fd42	0.21288016
104	0x3d9a3e55	0.0753142
105	0x3ed02a24	0.4065715
106	0x3e0a2481	0.13490488
107	0x3e272eee	0.16326496
108	0x3e5eaede	0.21746394
109	0x3e0b5443	0.13606362
110	0x3eb4566f	0.35222194
111	0x3e8582ed	0.2607645
112	0x3e6b517f	0.22980307
113	0x3e10f370	0.14155364
114	0x3e343c6b	0.17601173
115	0x3dfbbb46	0.12291579
116	0x3ea2b338	0.31777358
117	0x3c241fb6	0.010017326
118	0x3e332683	0.1749516
119	0xbe022bcb	-0.12712018
120	0x3e5b39a7	0.21408711
121	0x3e2219cf	0.15830158
122	0x3e04e4b7	0.12977873
123	0x3e96c439	0.2944658
124	0x3e0e4524	0.13893563
125	0x3e7ae4ef	0.24501394
126	0x3e49b659	0.19698466
127	0x3e0aa2ee	0.13538715
128	0x3de1c43e	0.11023758
129	0x3dc7b87d	0.09751985
130	0x3e0424dd	0.12904687
131	0xbe2bebfd	-0.16789241
132	0x3e444540	0.19167042
133	0x3df63e13	0.120235585
134	0x3e969fb7	0.29418728
135	0x3e93d7fc	0.2887572
136	0x3e584e32	0.21123579
137	0x3e0e5c76	0.13902459
138	0x3e94bac5	0.29048744
139	0x3ea0b49d	0.31387797
140	0x3e4a9289	0.19782461
141	0x3e9b344f	0.30313346
142	0x3e331782	0.17489436
143	0x3e82f615	0.2557837
144	0x3da6afca	0.08138998
145	0x3d191b54	0.037379578
146	0x3e62f902	0.22165301
147	0x3e2314e2	0.15925935
148	0x3de71c65	0.11284713
149	0x3e73237e	0.23744008
150	0x3e2d1bbb	0.1690511
151	0x3e9a760a	0.30168182
152	0x3e53fc36	0.2070168
153	0xbe3f803d	-0.18701263
154	0x3e0c0ee5	0.13677557
155	0x3e01838b	0.12647836
156	0x3d15b983	0.03655387
157	0x3e9717fd	0.2951049
158	0x3e88d51d	0.26725093
159	0x3d99867f	0.07496356
160	0x3e811a62	0.2521544
161	0x3ddc12e3	0.1074579
162	0xbe73f1a6	-0.2382265
163	0x3db593f0	0.088661075
164	0x3e77ff99	0.24218597
165	0x3e52f203	0.20600133
166	0x3e1f5355	0.15559132
167	0x3e02335f	0.12714909
168	0x3e4093fd	0.18806453
169	0x3dc46feb	0.09591659
170	0x3e63f96b	0.22263114
171	0x3eef7ebb	0.46776375
172	0x3e8737d0	0.2640977
173	0x3d8edd38	0.06975788
174	0x3dff4732	0.12464751
175	0x3ea7cf74	0.32775462
176	0x3e3a6126	0.18201122
177	0x3e88ea16	0.26741093
178	0x3cb128d0	0.021625906
179	0x3e4a9e31	0.19786908
180	0x3e9cccb2	0.3062492
181	0x3ebd2a20	0.369462
182	0x3dcf802c	0.10131869
183	0x3e8bdbd7	0.27316162
184	0x3e649615	0.22322877
185	0x3d13e11c	0.036103353
186	0x3ecc5f34	0.39916384
187	0x3db7bfa1	0.08972097
188	0xbe7c5eb6	-0.24645504
189	0x3eb602ef	0.35549113
190	0x3e7b0100	0.245121
191	0x3e12065d	0.1426024
192	0x3e27155a	0.16316739
193	0x3e4b671f	0.19863556
194	0xbcc3f6e6	-0.023921441
195	0x3de3ebd8	0.11128968
196	0x3e61f1bf	0.22064875
197	0x3e837593	0.2567564
198	0x3e44a758	0.19204462
199	0x3e8252d6	0.25453824
200	0x3e994fca	0.29943687
201	0x3d6b478f	0.05744129
202	0x3e0f5e70	0.14000869
203	0x3e2aa80b	0.16665666
204	0x3e789fe6	0.24279746
205	0x3e2ff926	0.17184886
206	0x3e5370ad	0.20648451
207	0x3e1302d2	0.14356545
208	0x3e203986	0.15646943
209	0x3e0186f0	0.12649131
210	0x3e37cd53	0.17949419
211	0x3e9c5611	0.30534413
212	0xbae6c26f	-0.0017605553
213	0x3eaf8183	0.34278497
214	0x3eb6629a	0.35622102
215	0xbe940436	-0.28909463
216	0x3e92d504	0.28678143
217	0x3e89a2a1	0.26881889
218	0x3e9b68fd	0.30353537
219	0x3e4bb574	0.19893438
220	0x3e04f68d	0.12984677
221	0x3f0d1557	0.55110687
222	0x3e0f746d	0.14009257
223	0x3eba6b93	0.36410198
224	0x3e09ab7c	0.13444322
225	0x3e49e663	0.19716792
226	0x3e6f7517	0.2338451
227	0x3de3acc9	0.111169405
228	0x3c519ee0	0.012794226
229	0x3e85e08c	0.26147878
230	0x3de74fb6	0.112945005
231	0x3e28441c	0.16432232
232	0x3dc2b3f3	0.09506979
233	0x3e4c71cd	0.19965287
234	0x3e9404f6	0.28910035
235	0x3f026be8	0.509459
236	0x3df182fb	0.11792561
237	0x3e6b4a98	0.22977674
238	0x3e51a394	0.20472556
239	0x3d7e97c5	0.062156457
240	0x3ea2c794	0.3179289
241	0x3dbb0251	0.09131301
242	0x3e02c010	0.12768579
243	0x3e922d03	0.28549966
244	0x3e794000	0.2434082
245	0x3e1c0cbd	0.15239234
246	0x3e7921c9	0.24329294
247	0x3e7bd215	0.24591859
248	0x3e898d11	0.26865438
249	0x3e8689dd	0.26277056
250	0xbdb51145	-0.088411845
251	0x3e468440	0.19386387
252	0x3e0f3034	0.13983232
253	0x3d8e4171	0.06946076
254	0x3e0e3cdc	0.13890404
255	0x3e9601f6	0.2929837

q1_net.2.weight f4 [256, 256]
0	0x3c0fc9dc	0.008776154
1	0xbdc0231a	-0.09381695
2	0xbdc0223a	-0.09381528
3	0x3e228cf0	0.15874076
4	0x3ca9e0f0	0.020737141
5	0xbd8b700e	-0.06808482
6	0x3e325742	0.17416099
7	0x3ddaf8f4	0.10692015
8	0x3db2878a	0.08717258
9	0xbd933f27	-0.0718978
10	0x3d9551a4	0.07290962
11	0x3dc4dc8c	0.096123785
12	0xbca836b5	-0.020533899
13	0x3d991836	0.07475321
14	0xbadfc964	-0.0017073569
15	0x3e00ad74	0.12566167
16	0xbda3a1d7	-0.07989853
17	0xbb879aea	-0.0041383402
18	0xbcf9209b	-0.030411055
19	0x3d6dfce1	0.058102492
20	0xbda79bc3	-0.08184006
21	0xbe4fedd0	-0.20305562
22	0xbd062eae	-0.03275936
23	0xbd3e53cd	-0.046466637
24	0xbe09e353	-0.13465624
25	0xbd87bbb0	-0.066275954
26	0xbd0834c6	-0.033253454
27	0x3dd62e69	0.10458071
28	0xbdd771f7	-0.10519784
29	0xbd5d069c	-0.05396138
30	0xbd83e3fb	-0.06439968
31	0xbe51139c	-0.20417637
32	0xbc34c311	-0.011032836
33	0xbc91da60	-0.017804325
34	0xbe0b562c	-0.1360709
35	0xbd4b214c	-0.0495923
36	0x3d2b5cc7	0.041836526
37	0xbdddff6b	-0.10839733
38	0xbc743053	-0.0149040995
39	0xbc1459f7	-0.009054652
40	0xbd1b3a9d	-0.037897695
41	0xbb856b03	-0.0040715947
42	0xbd328e2b	-0.043592613
43	0x3d04bbab	0.032405537
44	0xbe141387	-0.14460574
45	0xbdee5cac	-0.116387695
46	0xbe030ad0	-0.12797093
47	0xbd91900d	-0.07107554
48	0xbdc2aae2	-0.095052496
49	0x3d4dc1a7	0.05023351
50	0xbd5a23c9	-0.053256784
51	0xbdd91e36	-0.106014654
52	0xbcd48afd	-0.025945181
53	0x3dcfc94f	0.101458184
54	0xbdc02381	-0.09381772
55	0xbe775050	-0.2415173
56	0x3d5fb226	0.054613255
57	0x3d3a2900	0.045449257
58	0xbd1abe6e	-0.037779264
59	0x3e4644c3	0.19362168
60	0x3d804228	0.06262618
61	0xbe05082a	-0.12991396
62	0xbe31e484	-0.17372328
63	0x3bd18d52	0.0063950205
64	0x3e1130cf	0.14178775
65	0xbdbbb962	-0.09166218
66	0xbdf26c1b	-0.11837026
67	0x3e8034ae	0.2504019
68	0x3caa773a	0.020808805
69	0x3b11eefc	0.002226769
70	0x3e0f16dd	0.13973565
71	0xbd9ee23d	-0.07757995
72	0xbc843e86	-0.016143095
73	0xbb1db1dc	-0.0024062311
74	0x3c55ecfc	0.01305699
75	0xbdaff830	-0.0859226
76	0xbd126e7b	-0.035749894
77	0xbd85176e	-0.064986095
78	0x3dc36646	0.095409915
79	0xbd4095c0	-0.047017813
80	0x3df3df0f	0.119077794
81	0x3bca0936	0.006165649
82	0x3e370b95	0.17875512
83	0x3d70add4	0.058759525
84	0x3e38eb64	0.18058544
85	0x3dd65f40	0.10467386
86	0x3cd943e8	0.026521638
87	0xbe2c5d08	-0.16832364
88	0x3cc0614a	0.023483891
89	0x3e124569	0.1428429
90	0x3d43b2c1	0.047777895
91	0x3d96e851	0.073685296
92	0x3ccc6554	0.02495066
93	0x3d2223df	0.03958499
94	0xbd165079	-0.03669784
95	0x3e465ab0	0.19370532
96	0x3d5a1092	0.05323846
97	0xbd4ed2b8	-0.050493926
98	0x3d47090e	0.04859262
99	0x3e1c268c	0.1524908
100	0xbc15b6aa	-0.009137789
101	0x3d895a7f	0.06706714
102	0xbdb21098	-0.08694571
103	0x3d6bab0d	0.057536174
104	0x3dbc8b40	0.09206247
105	0x3ddc30c5	0.107514895
106	0xbcfbc557	-0.030733747
107	0xbed8aeba	-0.42320806
108	0x3db25e8f	0.08709442
109	0x3da3aa34	0.07991448
110	0x3cff99bd	0.031201238
111	0x3b5d5938	0.0033775102
112	0x3d98048b	0.074227415
113	0x3c2a94ad	0.010411424
114	0xbd9860a8	-0.07440311
115	0x3dfdc419	0.12390918
116	0xbd315dd7	-0.043302383
117	0x3ce56b22	0.028005186
118	0xbc67e065	-0.014152621
119	0xbed1825e	-0.40919775
120	0x3deb1411	0.11478437
121	0xbe0c7321	-0.13715793
122	0x3d8b6e35	0.0680813
123	0x3dd0a569	0.101877995
124	0x3def4ae2	0.11684205
125	0xbe22e5fc	-0.15908045
126	0xb9e1c454	-0.0004306162
127	0x3c97522b	0.018471798
128	0xbdb374ad	-0.087624885
129	0x3d8615b8	0.06547111
130	0x3d32242e	0.043491535
131	0xbc5f87c9	-0.013643214
132	0xbe31f2d4	-0.17377788
133	0x3b28fcf8	0.0025785547
134	0xbcdc22c9	-0.026872056
135	0x3d7bbd83	0.06146003
136	0x3d204b73	0.039134454
137	0x3be80e4e	0.0070817834
138	0x3d4a336b	0.049365442
139	0x3d9a776a	0.07542308
140	0xbb2fe48f	-0.0026839112
141	0x3d72901c	0.059219465
142	0x3de7d42d	0.11319766
143	0x3d244307	0.040102985
144	0xbcd91a2d	-0.02650174
145	0x3dc7cbb0	0.09755647
146	0xbd690d22	-0.05689729
147	0x3d8444ed	0.06458459
148	0x3d1d92e9	0.038470183
149	0xbaf4e032	-0.0018682538
150	0x3deeba9e	0.11656688
151	0x3d01add2	0.03165991
152	0x3d5eba94	0.054377154
153	0xbd4d6c45	-0.050152082
154	0x3e59869f	0.2124276
155	0xbcffe7ab	-0.031238398
156	0xbd0da024	-0.03457655
157	0x3da924ad	0.082589485
158	0xbdb2e562	-0.087351575
159	0x3dad2541	0.08454371
160	0x3d4302ee	0.047610216
161	0x3e080375	0.13282569
162	0x3e7666f5	0.24062712
163	0x3cd6d899	0.026226329
164	0x3d94df8c	0.07269201
165	0x3d7e0139	0.062012885
166	0xbab3f919	-0.0013730853
167	0xbd8bc307	-0.06824308
168	0xbc2e5343	-0.010639968
169	0x3c734948	0.014849015
170	0xbd39eef4	-0.0453939
171	0xbd3a6ce4	-0.045514002
172	0x3d3cd8aa	0.046105064
173	0xbe083f9b	-0.13305514
174	0xbdb0e4b7	-0.08637374
175	0x3e005d12	0.12535504
176	0xbdaa2703	-0.08308222
177	0xbd877378	-0.06613821
178	0x3c5c3c87	0.013442165
179	0x3d3a1d71	0.045438234
180	0x3cacfe1d	0.021117264
181	0xbe339941	-0.1753893
182	0x3ce0928b	0.027413627
183	0xbb9862af	-0.004650436
184	0xbe1b900e	-0.15191671
185	0x3d759a2b	0.05996148
186	0xbc818bae	-0.015813675
187	0xbe10e548	-0.14149964
188	0x3b98e6d1	0.0046661873
189	0x3df880ff	0.12133979
190	0xbe07bce3	-0.13255648
191	0x3ddd74ba	0.108132794
192	0xbca835d7	-0.020533485
193	0x3d7ce291	0.061739508
194	0x3e03c815	0.12869294
195	0xbd79837e	-0.060916416
196	0x3b92a536	0.004475261
197	0x3d0fae2b	0.03507821
198	0xbd084486	-0.033268474
199	0x3d6972e9	0.056994352
200	0x3de7dfb1	0.113219626
201	0x3d24c59a	0.04022751
202	0xbe203539	-0.15645303
203	0xbe0fbb7e	-0.14036366
204	0x3d05283c	0.032509074
205	0x3d491861	0.049095515
206	0x3d074862	0.033028014
207	0xbe5e2ac0	-0.21695995
208	0xbd96a266	-0.07355194
209	0x3d48c386	0.04901459
210	0xbcc59a50	-0.024121433
211	0x3da9525e	0.082676634
212	0x3e0015bd	0.12508292
213	0xbb1c31b2	-0.0023833332
214	0xbe924c9b	-0.2857407
215	0x3e64fb5f	0.22361515
216	0x3cc75afc	0.024335377
217	0x3df7da87	0.12102228
218	0x3d0d3466	0.0344738
219	0xbd4ca978	-0.049966305
220	0xbd818f88	-0.063262045
221	0xbd8e1e3f	-0.06939363
222	0x3e2de833	0.16983108
223	0x3d3fa869	0.046791468
224	0x3e398cee	0.18120167
225	0xbe036d19	-0.12834586
226	0x3de129a2	0.10994269
227	0x3d58998b	0.052880805
228	0xbd853912	-0.06505026
229	0xbd6ae92e	-0.057351284
230	0x3da5aa4a	0.08089121
231	0xbe1b000b	-0.15136735
232	0x3cb4f2d6	0.02208845
233	0xbd38944d	-0.045063306
234	0x3da009cb	0.07814368
235	0xbdb89be0	-0.09014106
236	0x3defeb84	0.11714843
237	0x3e204055	0.1564954
238	0xba652efd	-0.00087426585
239	0x3e3c0745	0.18362148
240	0xbd00b44c	-0.031421944
241	0x3d92abe2	0.0716169
242	0x3e148b4c	0.14506263
243	0x3d21a280	0.039461613
244	0xbd85c3d9	-0.065314956
245	0xbd46f0cb	-0.04856948
246	0xbcdff33e	-0.027337667
247	0x3d984a78	0.07436079
248	0x3cdf9228	0.027291372
249	0x3b39c25a	0.0028344602
250	0xbca4f041	-0.020134093
251	0xbe6c7419	-0.23091163
252	0x3d47008d	0.04858451
253	0xbdaaca3e	-0.08339356
254	0xbe0eaea6	-0.1393381
255	0x3d542774	0.051795438

q1_net.2.bias f4 [256]
0	0x3e12ffa1	0.14355327
1	0x3e100dbb	0.14067738
2	0x3e63327c	0.22187227
3	0xbc9fe931	-0.019520374
4	0xbd881b83	-0.066458724
5	0x3d347d83	0.04406501
6	0x3dd8f960	0.105944395
7	0xbd79108b	-0.060806792
8	0x3e04cc50	0.12968564
9	0x3e41bc94	0.18919593
10	0x3e00c84b	0.12576406
11	0xbdb629ae	-0.088946685
12	0xbe3879d6	-0.18015227
13	0xbc6c006e	-0.014404399
14	0xbdb47fc6	-0.08813433
15	0x3dc61c35	0.09673349
16	0x3e3013ab	0.17195003
17	0x3d44e878	0.048073262
18	0x3dcd18a5	0.10014466
19	0x3d8e4e33	0.06948509
20	0xbd1b4eb7	-0.037916865
21	0xbd7f2740	-0.06229329
22	0xbd96e94c	-0.073687166
23	0x3deb2864	0.11482313
24	0x3d93edca	0.07223089
25	0x3e25dfbe	0.16198632
26	0x3e331db8	0.17491806
27	0x3c893fd7	0.016754074
28	0x3d8dce0b	0.06924065
29	0x3c811c72	0.015760634
30	0x3e21a600	0.1578598
31	0xbc8b9048	-0.017036572
32	0xbdeb7177	-0.11496251
33	0xbcd7f2f5	-0.026360968
34	0xbd216b9f	-0.039409276
35	0x3d3c1f51	0.045928303
36	0xbd250c3d	-0.040294874
37	0x3e2d8475	0.1694506
38	0x3e53ceb3	0.20684318
39	0x3e3c9369	0.18415608
40	0x3e0c027b	0.13672821
41	0x3dad99ac	0.08476576
42	0x3d4fcfac	0.05073516
43	0x3db81267	0.08987885
44	0x3dfdf86c	0.12400898
45	0x3d218883	0.03943683
46	0xbd90087f	-0.070328705
47	0xbd10486d	-0.03522532
48	0xbc600d32	-0.013675021
49	0x3a8d44b1	0.0010777918
50	0x3e3762e0	0.17908812
51	0x3e61d397	0.22053371
52	0x3da1c6f4	0.078992754
53	0xbdaf37b2	-0.08555545
54	0x3d0d02a2	0.03442634
55	0xbd81c813	-0.06336989
56	0x3db86dd1	0.09005321
57	0x3e354e9f	0.17705773
58	0x3e4d413f	0.2004442
59	0x3e23b2b4	0.15986139
60	0xbe8f0373	-0.2793232
61	0xbce47fbe	-0.027892943
62	0xbd6f6769	-0.05844823
63	0x3e15f770	0.14645171
64	0x3d2c7311	0.042101923
65	0x3e048640	0.12941837
66	0xbcf2d3c3	-0.029641991
67	0x3e3f41f0	0.18677497
68	0xbc03af3b	-0.008037384
69	0xbd469b27	-0.04848781
70	0x3aac5244	0.0013147076
71	0x3e136cfb	0.14397041
72	0x3ccb7cfe	0.024839874
73	0x3ddb7ff7	0.10717767
74	0x3df3310c	0.11874589
75	0xbcba516d	-0.022743905
76	0xbdcf6964	-0.101275235
77	0x3e25303f	0.16131686
78	0x3e39f7b3	0.18160896
79	0x3d8d289d	0.06892512
80	0x3e0672e1	0.1312976
81	0x3dcdb2ca	0.10043867
82	0x3e1f0e50	0.15532804
83	0xbc22dc43	-0.00994021
84	0xbd1d439d	-0.03839456
85	0x3e159bed	0.14610262
86	0xbd7aaea1	-0.061201695
87	0xbd0b4441	-0.03400064
88	0xbbd0438e	-0.0063557094
89	0x3ce2d32a	0.027688581
90	0x3dfb1813	0.12260451
91	0x3e15dae6	0.14634284
92	0xbd6f29e8	-0.058389574
93	0xbcdcbcca	-0.02694549
94	0xbc606ade	-0.013697354
95	0x3d85ac2d	0.065269805
96	0xbe1e8e57	-0.15483986
97	0x3e2c21b1	0.16809727
98	0xbca45249	-0.020058768
99	0x3e30a40a	0.17250076
100	0x3e178db4	0.14800149
101	0x3e68cbd3	0.22734003
102	0x3df4b04a	0.11947687
103	0x3db003bd	0.08594463
104	0xbd471abc	-0.04860948
105	0xbdbd4982	-0.09242536
106	0xbd85f151	-0.06540168
107	0x3cd5c759	0.026096033
108	0x3e0c3ca5	0.13695009
109	0xbd9e6c7c	-0.077355355
110	0x3e74f6a6	0.23922214
111	0x3e3dd69b	0.18538897
112	0xbd3c7152	-0.04600651
113	0x3e1eb3be	0.15498254
114	0x3e28154a	0.16414371
115	0xbd1dd780	-0.038535595
116	0x3e1aeeef	0.15130208
117	0x3e10fe72	0.14159563
118	0x3df10cda	0.11770029
119	0x3e2e5343	0.1702395
120	0xbb67cf61	-0.003537141
121	0x3e2d9d06	0.16954431
122	0x3e233784	0.15939146
123	0x3bbb4133	0.0057145595
124	0xbd4d6b3e	-0.050151102
125	0x3d848089	0.06469829
126	0x3d76cc55	0.06025346
127	0x3e1111de	0.14166972
128	0x3e4fb9f0	0.20285773
129	0x3e0fb941	0.14035513
130	0xbd407741	-0.04698873
131	0x3deebc62	0.11657025
132	0x3e3dbbb2	0.18528631
133	0x3d75c158	0.05999884
134	0xbdb40b6d	-0.08791242
135	0xbcbedb85	-0.023298034
136	0xbd9ad8c7	-0.07560878
137	0xbb235784	-0.002492399
138	0x3daa1b65	0.08306006
139	0xbd262632	-0.04056377
140	0xbe180aa0	-0.14847803
141	0x3e285205	0.16437538
142	0x3e1bf34a	0.15229526
143	0x3dca7887	0.0988627
144	0xbe24d2b6	-0.16096005
145	0x3d8a9895	0.06767384
146	0xbcf13b24	-0.029447146
147	0x3e6fa966	0.23404464
148	0xbd0967f0	-0.03354639
149	0x3e143942	0.14474967
150	0x3db88f6c	0.090117306
151	0x3e0faa6a	0.14029852
152	0x3e166d07	0.14690028
153	0x3d97cfc1	0.07412673
154	0xbdaf4892	-0.085587636
155	0x3d4642ad	0.04840343
156	0xbd4a728e	-0.049425654
157	0x3e4e7200	0.20160675
158	0x3e11e453	0.14247255
159	0x3e3bf983	0.183569
160	0x3c8fba42	0.01754487
161	0x3dcf3ce1	0.101190336
162	0x3d96d2ad	0.07364402
163	0xbd9ab140	-0.07553339
164	0xbdce2b8f	-0.10066902
165	0x3b82f246	0.0039961664
166	0x3e23dcde	0.16002223
167	0x3e44bad4	0.19211894
168	0x3dfee050	0.12445128
169	0x3c1b497c	0.009477969
170	0xbe2ddb73	-0.16978244
171	0x3cc7a5d4	0.024371065
172	0x399daacd	0.0003007263
173	0xbcc0d819	-0.023540543
174	0xbccd2173	-0.025040364
175	0x3e25f643	0.16207223
176	0xbdcfea56	-0.10152118
177	0xbdd3620d	-0.10321436
178	0xbcd6d1fe	-0.026223179
179	0xbc9f54e2	-0.019449655
180	0xbcc0e2ab	-0.023545584
181	0xbd3a3bc3	-0.04546715
182	0xbd7d3041	-0.061813597
183	0x3da3daaa	0.08000691
184	0x3e21c3b3	0.1579731
185	0x3dd88964	0.1057308
186	0x3d3302c0	0.043703794
187	0x3e121117	0.14264332
188	0x3e049cb9	0.1295041
189	0x3d82ea73	0.06392374
190	0x3e0ac7a0	0.13552713
191	0xbd029d3c	-0.03188823
192	0x3e28cda4	0.16484696
193	0xbdeee4ad	-0.1166471
194	0x3d65aaf6	0.056071244
195	0xbca49446	-0.020090234
196	0xbc9b65fc	-0.018969528
197	0xbd8d3175	-0.06894199
198	0x3e114e6c	0.14190072
199	0xbd35021b	-0.04419146
200	0x3dea1742	0.11430217
201	0x3e0a71d7	0.13519989
202	0xbd9e726f	-0.0773667
203	0x3c4ea8ef	0.012613519
204	0xbcf52613	-0.029925382
205	0x3a4f1171	0.00078990223
206	0x3dedab29	0.11604912
207	0x3e17cf7e	0.14825246
208	0x3dbe1c65	0.092827596
209	0x3defdad5	0.11711661
210	0x3e5e99ce	0.2173836
211	0x3dd207b7	0.10255378
212	0xbe465e79	-0.19371976
213	0x3e1ec2cb	0.15503995
214	0xbc9f53eb	-0.019449195
215	0x3e0383f6	0.12843308
216	0xbccf114a	-0.025276799
217	0xbda7fac2	-0.08202125
218	0x3b6c4f20	0.0036057904
219	0xbd8f5e1c	-0.07000372
220	0xbc1d82cd	-0.009613705
221	0x3c163163	0.009167048
222	0xbc8d7e6a	-0.017272193
223	0x3e0fe52e	0.14052269
224	0x3dcd1311	0.10013402
225	0x3e17576a	0.1477944
226	0xbc37e41e	-0.011223821
227	0x3dfea06d	0.124329425
228	0xbd9564e3	-0.07294633
229	0x3dce9267	0.10086518
230	0xbd7242b6	-0.05914565
231	0x3dd2690a	0.10273941
232	0xbc14c590	-0.009080306
233	0x3df5eee7	0.12008458
234	0x3d2e1957	0.042504635
235	0x3e089694	0.13338691
236	0xbe64f76b	-0.22360007
237	0x3e1a230e	0.15052435
238	0x3dd63c07	0.10460668
239	0x3d047e70	0.032347143
240	0x3d8fd542	0.070230976
241	0xbd3764aa	-0.044773735
242	0x3e304fad	0.17217894
243	0x3e435d8d	0.19078656
244	0xbdb373a0	-0.08762288
245	0x3e1c384f	0.15255855
246	0xbe7815dc	-0.24227089
247	0xbe34d2aa	-0.17658487
248	0xbc21cb1a	-0.009875083
249	0x3e1c1fe8	0.15246546
250	0x3e06f71d	0.13180204
251	0x3e266c59	0.16252269
252	0xbd80911a	-0.06277676
253	0xbe32b307	-0.17451106
254	0xbdae1481	-0.085000046
255	0x3d8411fc	0.06448743

q1_net.4.weight f4 [1, 256]
0	0x3daaa278	0.0833177
1	0x3d86de63	0.06585386
2	0x3f1aca72	0.6046516
3	0x3e62f596	0.22163996
4	0x3ecc2267	0.39869997
5	0xbeb50a2f	-0.35359332
6	0x3e1606d6	0.14651045
7	0xbf8c1d09	-1.0946361
8	0x3e5681cb	0.2094795
9	0x3f60b5ad	0.87777215
10	0x3d20306c	0.03910868
11	0xbe6df1f4	-0.23236829
12	0xbf2239bf	-0.63369364
13	0x3e3dc2e4	0.18531376
14	0xbf2b4e20	-0.66916084
15	0x3e05b692	0.13057926
16	0x3d24ff69	0.04028264
17	0x3e3ca697	0.18422924
18	0x3e664968	0.2248894
19	0xbe607c2e	-0.21922371
20	0xbe7cdf3c	-0.24694532
21	0xbf8635de	-1.0485189
22	0xbd3344f0	-0.043766916
23	0x3e4de1d6	0.20105681
24	0xbdf86f94	-0.12130657
25	0x3d1cd666	0.038290404
26	0x3df39461	0.118935354
27	0xbd76efe5	-0.060287375
28	0x3d8e192e	0.069383964
29	0xbeb441c7	-0.35206434
30	0x3dc4339f	0.095801584
31	0xbdc9034a	-0.098150805
32	0xbf317dc4	-0.6933253
33	0xbd51281b	-0.05106364
34	0xbe6ec476	-0.23317131
35	0xbe37dab8	-0.17954528
36	0xbd1dec16	-0.038555227
37	0xbe63a474	-0.22230703
38	0x3d4b4b76	0.049632512
39	0x3e2b41cb	0.16724317
40	0x3df8f55c	0.121561736
41	0x3e3cb23f	0.1842737
42	0xbd324950	-0.043526947
43	0xbe5b194d	-0.2139637
44	0x3c96a8b7	0.018390996
45	0xbfa27cab	-1.2694296
46	0xbe834b13	-0.25643215
47	0xbef7c69f	-0.48393723
48	0xbe0329b2	-0.12808874
49	0x3ddd7d87	0.10814958
50	0xbf0155e1	-0.50521666
51	0x3d2b6377	0.041842904
52	0xbe39e954	-0.18155414
53	0xbeaae426	-0.33377188
54	0x3e991d8e	0.2990536
55	0x3ed74433	0.4204422
56	0xbe2efc7c	-0.17088503
57	0x3d82657e	0.06367014
58	0x3d8ef13c	0.069796056
59	0x3e4b1a2e	0.19834206
60	0xbf66fd63	-0.9023039
61	0x3e3dc3cc	0.18531722
62	0xbce8b5df	-0.028407035
63	0x3da9dd8d	0.082942106
64	0xbede2591	-0.43388036
65	0x3ca12557	0.019671125
66	0xbe9c98b4	-0.30585253
67	0xbd85243b	-0.06501051
68	0xbd2507e9	-0.040290747
69	0xbd9a73be	-0.07541607
70	0xbe744cb1	-0.2385738
71	0x3d744998	0.059640497
72	0xbec84608	-0.3911593
73	0x3dcb6fec	0.09933457
74	0x3dac2651	0.08405746
75	0x3e823713	0.25432643
76	0xbe802694	-0.25029433
77	0x3dd96e04	0.10616687
78	0x3d6c643f	0.05771279
79	0xbea006cb	-0.31255183
80	0x3e116866	0.14199981
81	0xbe06f43c	-0.13179106
82	0x3ca98429	0.020692902
83	0xbea93c55	-0.33053842
84	0xbe90988d	-0.28241387
85	0x3d6138a7	0.05498567
86	0xbe1c6949	-0.15274538
87	0xbd64639a	-0.05575905
88	0xbe3aff43	-0.18261437
89	0x3e972380	0.29519272
90	0x3e0a32c1	0.13495924
91	0xbdb48964	-0.08815268
92	0x3eae8b48	0.34090638
93	0xbc9c2162	-0.019058887
94	0x3e1a5867	0.15072785
95	0xbe8c03cb	-0.27346644
96	0xbf16a869	-0.58850724
97	0x3db8ba96	0.090199634
98	0xbe589674	-0.21151143
99	0x3cf38a4e	0.029729035
100	0x3d9bc777	0.07606404
101	0x3d1c2b27	0.03812709
102	0x3e034614	0.12819701
103	0xbf2bcf46	-0.6711315
104	0xbd6489bd	-0.05579542
105	0xbf0240b0	-0.50879955
106	0xbe757ce8	-0.23973429
107	0xbe879fdc	-0.2648915
108	0x3d1eea29	0.03879753
109	0xbecaa424	-0.39578354
110	0x3d3eb1b4	0.04655619
111	0xbe25726f	-0.16156934
112	0xbe9f00c9	-0.31055287
113	0x3e854261	0.26027206
114	0x3d698592	0.05701215
115	0xbe97d294	-0.29652846
116	0x3d85be81	0.06530476
117	0xbe431930	-0.19052577
118	0xbe6bf163	-0.230413
119	0x3ecf51c4	0.4049207
120	0xbdf01d6f	-0.11724364
121	0x3db91509	0.09037215
122	0x3da346bb	0.07972475
123	0xbe484224	-0.1955648
124	0xbf64a2ea	-0.8931109
125	0x3e558846	0.20852765
126	0xbe89c1ac	-0.26905572
127	0x3d2ca4eb	0.042149466
128	0xbdaff0fd	-0.08590887
129	0xbee70167	-0.45118257
130	0xbed61b49	-0.41817692
131	0x39a6c8ab	0.00031811497
132	0x3d058825	0.03260054
133	0xbdd169cb	-0.102252565
134	0xbf2fb27f	-0.6863174
135	0xbd31b553	-0.043385815
136	0xbf4d1a16	-0.8011793
137	0xbe5df42f	-0.2167518
138	0xbda014ba	-0.07816453
139	0xbd04ab70	-0.032390058
140	0xbf46ede5	-0.7770675
141	0x3c92bd67	0.01791258
142	0x3dc4da6d	0.09611974
143	0x3e405e8e	0.1878607
144	0xbecf1a07	-0.40449545
145	0xbd8f9fab	-0.07012876
146	0xbd8b16b8	-0.06791443
147	0x3d10138d	0.035174895
148	0xbd9eddc1	-0.0775714
149	0x3e81c1ee	0.2534327
150	0x3dc85a76	0.09782879
151	0x3d88a55d	0.066721655
152	0x3d7ebc06	0.062191032
153	0xbdf25363	-0.11832311
154	0xbe94e233	-0.29078826
155	0xbe940959	-0.28913382
156	0xbe8480d6	-0.25879544
157	0xbdfc9fba	-0.12335153
158	0x3da2d9ad	0.079516746
159	0x3caa5f3e	0.020797368
160	0xbea7d68a	-0.32780868
161	0x3dd4a4e4	0.10383013
162	0x3de31778	0.11088461
163	0xbd8affe5	-0.06787089
164	0xbc8ea004	-0.017410286
165	0xbe2226db	-0.15835135
166	0x3e122e0d	0.1427538
167	0x3dc09115	0.09402672
168	0x3da9db85	0.08293823
169	0xbe2bb6cc	-0.1676895
170	0x3e2940d9	0.16528644
171	0xbe98fc44	-0.29879963
172	0xbe1611b3	-0.14655189
173	0xbd177ae6	-0.03698244
174	0xbd588ccd	-0.052868653
175	0x3e433df2	0.19066599
176	0xbd783d40	-0.060605288
177	0xbef257c0	-0.47332573
178	0xbcdc4351	-0.026887568
179	0xbe6882a9	-0.22706093
180	0x3e36c0e1	0.17847015
181	0x3e5d35e1	0.21602584
182	0xbd4e5f74	-0.050384
183	0x3e1a9133	0.15094452
184	0x3d51d3c4	0.051227346
185	0x3ced047a	0.028932799
186	0xbecead15	-0.40366426
187	0x3db9885d	0.09059212
188	0x3d901b8a	0.07036503
189	0x3e99d3c9	0.30044392
190	0xbe5f3698	-0.2179817
191	0xbd12cf5b	-0.03584228
192	0x3d9e8a65	0.077412404
193	0xbebb5c3c	-0.36593807
194	0xbe9aa860	-0.30206585
195	0xbd924a4c	-0.07143077
196	0xbe7790f8	-0.24176395
197	0xbfac4226	-1.3457687
198	0x3df8a97b	0.12141701
199	0xbdb7f780	-0.08982754
200	0x3db26261	0.087101705
201	0x3d18e117	0.037324037
202	0xbe93e7d9	-0.28887823
203	0xbe88a507	-0.26688406
204	0xbe6bc6f6	-0.23025116
205	0xbe8350f6	-0.25647706
206	0xbd53ba1d	-0.051691163
207	0x3d986b55	0.07442347
208	0x3e764082	0.24048045
209	0x3dc09d7e	0.09405039
210	0x3e8d91b1	0.27650216
211	0xbe1b8554	-0.1518758
212	0xbe83ebf2	-0.2576595
213	0x3d57259b	0.052526098
214	0xbe98cb1a	-0.29842454
215	0x3d26b437	0.04069921
216	0xbe76e5f4	-0.24111158
217	0xbeb06362	-0.34450823
218	0xbe015310	-0.12629342
219	0xbef4a9a5	-0.47785679
220	0xbd8aa513	-0.06769767
221	0xbe35c2cc	-0.1775009
222	0xbed1b4a7	-0.4095814
223	0x3d4ffde4	0.05077924
224	0xbe47df4f	-0.19518779
225	0x3d180b7c	0.037120327
226	0xbdc64962	-0.096819654
227	0x3c8126e9	0.015765624
228	0xbed186c5	-0.40923133
229	0x3e00a5b2	0.12563208
230	0xbd0fe96d	-0.03513472
231	0x3d8658ed	0.0655993
232	0xbe97be3e	-0.2963733
233	0x3df2c2b1	0.11853541
234	0x3e5c8c03	0.21537785
235	0x3d30f835	0.04320546
236	0xbf196c95	-0.5993131
237	0x3efae005	0.48999038
238	0x3ce548f8	0.027988896
239	0xbe233be1	-0.1594081
240	0xbe2931fe	-0.16522977
241	0xbf9de5f2	-1.2335799
242	0xbe454bb4	-0.1926716
243	0x3da6cfa9	0.08145077
244	0xbcdacab4	-0.026707985
245	0xbdeebf46	-0.11657576
246	0xbe9a9964	-0.30195153
247	0xbf107028	-0.56421137
248	0xbd3c5134	-0.04597588
249	0x3e47ef77	0.19524942
250	0x3e2a414a	0.16626468
251	0x3e5d8d1c	0.2163586
252	0xbea6a2db	-0.32546124
253	0x3e38655f	0.1800742
254	0xbf17a6a8	-0.5923867
255	0xbead83e8	-0.338897

q2_net.0.weight f4 [256, 109]
0	0xbe2cfa98	-0.16892469
1	0x3d263dc2	0.04058624
2	0x3c957b68	0.018247321
3	0xbc0ade77	-0.008475891
4	0x3b01fef5	0.0019835804
5	0xbbd8bf95	-0.0066146352
6	0xbbc3dd1b	-0.0059772856
7	0x3bffbd22	0.007804529
8	0xbd821e1d	-0.063534
9	0x3b4aeb38	0.0030962955
10	0xbbe256a3	-0.0069073006
11	0x3c8b0717	0.016971154
12	0x3b166189	0.002294632
13	0xbb7e02ff	-0.003875911
14	0x3bc3277a	0.0059556337
15	0x3bebd95b	0.0071975417
16	0x3a184383	0.00058084
17	0xbc1c1043	-0.0095253615
18	0xbab790a0	-0.0014004894
19	0xb9a71f7f	-0.0003187619
20	0xbc31fd87	-0.010863668
21	0xbc09f2af	-0.008419677
22	0xbde0590e	-0.10954486
23	0x384092fe	4.5913264e-05
24	0xbc4be8c9	-0.012445637
25	0xbba497cd	-0.005022979
26	0x3e111467	0.14167939
27	0x3e9fa41e	0.311799
28	0xbc5cb6bf	-0.013471304
29	0x3befe0ef	0.0073205153
30	0xbbde06d9	-0.0067757186
31	0xbc982acc	-0.018575095
32	0x3d25f1f7	0.04051396
33	0x3bd3c722	0.0064629475
34	0xbc619834	-0.013769198
35	0xbed6e215	-0.41969362
36	0xbc936d70	-0.01799652
37	0xb8bb92d1	-8.9442015e-05
38	0x3b3712ac	0.0027934713
39	0x3d8b35ac	0.067973465
40	0xbbd80d80	-0.006593406
41	0xbafe2e5d	-0.001939248
42	0xbc06ebb1	-0.008234904
43	0x3ab2a98c	0.0013630851
44	0x3c4f2733	0.012643623
45	0xbdacf032	-0.08444251
46	0xbc44655c	-0.011987057
47	0xbb94f8d9	-0.0045462665
48	0x3d3274da	0.04356847
49	0xbc0a07db	-0.008424724
50	0xbd17e2fe	-0.03708171
51	0x3d0b6aef	0.034037527
52	0xbc1a8459	-0.009430968
53	0xbb3764d6	-0.0027983687
54	0x3cbe35ca	0.023219008
55	0xbc374646	-0.011186188
56	0x3bddefd7	0.006772976
57	0xbba0d6d7	-0.0049084234
58	0xbb05117a	-0.0020304606
59	0x3aa9c700	0.0012952983
60	0x3d570570	0.05249542
61	0xbc7c31a5	-0.015392696
62	0x3c973904	0.018459804
63	0xbda3876c	-0.07984814
64	0x3da4e199	0.08050842
65	0x3a6af2d9	0.0008962579
66	0xbbb8b4b6	-0.005636777
67	0xbb92f952	-0.0044852877
68	0xbe816352	-0.25271088
69	0x3c21521f	0.009846239
70	0x3cad98bf	0.021191
71	0xbad1d012	-0.0016007444
72	0xbbd8f714	-0.006621251
73	0x3b68b3ec	0.0035507632
74	0xbc7548c5	-0.014970963
75	0x3cda3031	0.026634308
76	0xbc6f1db3	-0.014594483
77	0xbc7e9d42	-0.015540423
78	0xbb7c356d	-0.0038483993
79	0x3ce4f2e8	0.027947858
80	0xbc43b37e	-0.01194465
81	0xbaa5d8a4	-0.0012653065
82	0xbbb579e6	-0.005538213
83	0x3c671a62	0.014105411
84	0xbcd229d7	-0.025654716
85	0x3d55e5ea	0.052221216
86	0x3ae67726	0.0017583116
87	0xbbb3ffb4	-0.0054931287
88	0xbca6fe1e	-0.020384844
89	0xbd25789a	-0.040398218
90	0x3a73d10c	0.0009300865
91	0xbc8b98c4	-0.017040618
92	0x3b934428	0.004494209
93	0xbd650cc3	-0.055920374
94	0x3c123f58	0.008926235
95	0xbbe8b605	-0.0071017765
96	0xbc5b0035	-0.013366749
97	0x3b174c3e	0.0023086215
98	0xbec86014	-0.39135802
99	0xbdd4b546	-0.10386138
100	0xbd3f96d7	-0.04677471
101	0xbbb3e637	-0.00549009
102	0xbd257ba3	-0.040401112
103	0x3ddff222	0.10934855
104	0x3db114ef	0.08646571
105	0x3cb40b99	0.021978186
106	0x3d2a72a6	0.041613244
107	0xbc987424	-0.018610068
108	0x3e585224	0.21125084
109	0x3d2b1c17	0.041774835
110	0xbd59aa43	-0.05314089
111	0xbd4206fe	-0.04736995
112	0xbb9f2cda	-0.0048576416
113	0x3c25d3a8	0.010121264
114	0x3babf40c	0.0052475985
115	0xbaeb48d5	-0.0017950783
116	0x3c916f13	0.01775316
117	0xbd73542d	-0.05940645
118	0xbc19cee3	-0.009387705
119	0x3c0800a5	0.008300935
120	0xbca246a8	-0.019809082
121	0xbb0f6531	-0.0021880383
122	0x3c108906	0.008821731
123	0x3c408d5f	0.0117524555
124	0xbaecab95	-0.0018056507
125	0xbbf84cde	-0.0075775227
126	0x3b670c95	0.0035255302
127	0xb9d70a76	-0.0004101579
128	0xbc0a408a	-0.008438239
129	0xbbd6f71e	-0.0065602204
130	0xbb6dd5b9	-0.0036290719
131	0xbd8c27e8	-0.06843549
132	0xbc40af9e	-0.01176062
133	0x3cdb6930	0.026783556
134	0xb9cfd13c	-0.00039638008
135	0x3cc544ac	0.024080597
136	0xbed56d98	-0.41685176
137	0xbbe0fee8	-0.0068663247
138	0x3bb9a258	0.005665105
139	0xbc00bfe6	-0.007858252
140	0x3bb52cd0	0.0055290237
141	0xbd2643c2	-0.040591963
142	0xbc271248	-0.01019723
143	0xbb6eacbc	-0.0036418876
144	0xbef0c988	-0.47028756
145	0xbc0b1432	-0.008488702
146	0xbc78423f	-0.015152513
147	0x364d8d8e	3.0629776e-06
148	0xbd5953c2	-0.053058393
149	0xbc3c03b9	-0.011475497
150	0xbcabb018	-0.020957991
151	0xbc4880c4	-0.012237731
152	0xbaff5ddf	-0.0019482932
153	0xbc5e8adf	-0.013582914
154	0x3c9f4c77	0.019445641
155	0xb9c41eb0	-0.00037406897
156	0xbc94f328	-0.018182352
157	0xbe06d600	-0.13167572
158	0xbb996c8d	-0.0046821297
159	0x3d88afdb	0.06674167
160	0x3da9c230	0.082889915
161	0xbbe56c19	-0.0070014116
162	0xbca53bbe	-0.020170089
163	0xbd766673	-0.060156297
164	0x3ca2c155	0.019867579
165	0xbb10fd53	-0.002212365
166	0xbc90107b	-0.017585983
167	0x3c06f619	0.008237385
168	0xba92d8b6	-0.0011203501
169	0xbd43f232	-0.047838397
170	0xbc713af3	-0.014723527
171	0xbc579c47	-0.013159818
172	0xbdaedfae	-0.08538757
173	0xbe10ed8f	-0.14153121
174	0xbd9d3de2	-0.07677819
175	0xbc548f1f	-0.012973576
176	0xbad771f1	-0.0016437155
177	0xbdfe7b8b	-0.12425908
178	0xbe037ed5	-0.12841351
179	0x3c95f528	0.018305376
180	0xbcafadcb	-0.021445176
181	0x3b8f69a3	0.0043766066
182	0xbb230898	-0.0024876948
183	0xbc0a112d	-0.008426947
184	0x3d4071fa	0.046983697
185	0xbc36aa8c	-0.01114906
186	0xbb9d27f4	-0.0047960225
187	0x3bbff165	0.005857634
188	0xbdf100ad	-0.11767707
189	0x3b60d4e3	0.0034306578
190	0xbc5bbae8	-0.013411261
191	0x3c09bbb0	0.008406565
192	0xbc627a8d	-0.013823164
193	0xbc9b8ae7	-0.018987132
194	0x3e603a87	0.21897326
195	0x3acd762b	0.0015675476
196	0xbc000759	-0.007814252
197	0x3a88bcc1	0.001043223
198	0x3e147aba	0.14499941
199	0xbc82799b	-0.015927127
200	0xbcbdc7ce	-0.023166563
201	0xbc851d64	-0.016249366
202	0xba748b17	-0.00093285873
203	0xbbdf0b4e	-0.0068067675
204	0xbbee49ba	-0.0072719725
205	0x3c1e7795	0.009672065
206	0x3caf4562	0.021395389
207	0xbd8c8c03	-0.068626426
208	0xbdb52bb9	-0.0884623
209	0x3bacecb9	0.005277243
210	0x3d7fe30e	0.062472396
211	0xbd813c73	-0.06310358
212	0x3cee4f08	0.02909042
213	0xbc6a1773	-0.014287817
214	0x3d5e1474	0.054218724
215	0x3d4d5a43	0.05013491
216	0xbdbbd815	-0.09172074
217	0xbe34bbbc	-0.1764974
218	0x3d253343	0.04033209
219	0x3c958b56	0.018254917
220	0xbbbb0868	-0.005707789
221	0xbbab45e0	-0.0052268356
222	0x3bcf327b	0.0063231564
223	0x3a9d0ac7	0.0011981361
224	0xbb8575b8	-0.004072871
225	0x3c701807	0.014654166
226	0xbd8fa765	-0.0701435
227	0x3c36ae0a	0.011149893
228	0x3b77cfbb	0.0037813026
229	0xbe5e91cf	-0.21735309
230	0xbb8f6e88	-0.00437719
231	0xbbadbc85	-0.0053020143
232	0xbb71acac	-0.0036876602
233	0x3ba38cc7	0.004991147
234	0xbc100f53	-0.008792716
235	0xbc3f6b20	-0.011683255
236	0x391be63d	0.00014867722
237	0xbc1026d0	-0.008798316
238	0xbace08d3	-0.0015719183
239	0xbc2d948d	-0.010594499
240	0xbdc58543	-0.09644558
241	0xbc5d4901	-0.013506175
242	0x3d2c289b	0.042030912
243	0xbb2a5585	-0.0025990915
244	0xbc065cf6	-0.008200875
245	0x3e918ba6	0.28426856
246	0xbca3a305	-0.019975195
247	0xbbc780be	-0.0060883453
248	0xbc24ea69	-0.010065653
249	0xbac5b0b5	-0.001508257
250	0xbdcaa4e2	-0.0989473
251	0xbb5adea4	-0.0033396864
252	0xbbac5eb1	-0.0052603115
253	0xbcaabdfd	-0.020842547
254	0x3d3e6443	0.046482336
255	0xbc8a4552	-0.016878758

q2_net.0.bias f4 [256]
0	0x3e674084	0.22583205
1	0x3e59802d	0.21240301
2	0x3e6d79b7	0.23190962
3	0x3e2aab79	0.16666974
4	0x3e4c255b	0.19936125
5	0x3e43b4b6	0.19111905
6	0x3ebe10cc	0.3712219
7	0x3ea710bf	0.32629964
8	0x3ea9091b	0.3301476
9	0x3ed8d26d	0.42348042
10	0x3e17b612	0.14815548
11	0x3e6512f0	0.22370505
12	0x3dd3536c	0.10318646
13	0x3e8427a2	0.25811487
14	0x3e15a80d	0.14614888
15	0x3d9b600d	0.075866796
16	0x3e366277	0.17810999
17	0x3eef3b17	0.4672477
18	0x3d7d4a59	0.06183848
19	0x3e0733ed	0.13203402
20	0x3dbdfc74	0.09276667
21	0x3eae8467	0.3408539
22	0x3e96c17a	0.29444486
23	0x3e7da196	0.24768671
24	0x3e560e06	0.20903787
25	0x3e76bd6a	0.24095693
26	0x3e72ef73	0.23724155
27	0x3dc5ab53	0.09651818
28	0x3d3ddc77	0.04635283
29	0x3e4f96f0	0.20272422
30	0x3e4362ef	0.19080709
31	0x3f01bac4	0.50675607
32	0x3d8109bf	0.06300687
33	0x3e697ead	0.22802229
34	0xbcd9bb20	-0.026578486
35	0x3da14504	0.07874492
36	0x3e138d2b	0.1440932
37	0x3e74c30e	0.23902532
38	0x3e905460	0.28189373
39	0x3e64a5dd	0.22328897
40	0x3e267cce	0.16258547
41	0x3de60201	0.11230851
42	0xbd59b594	-0.053151682
43	0x3e835547	0.25651
44	0x3e9bb427	0.30410883
45	0x3d84bd2a	0.06481393
46	0x3e510149	0.20410646
47	0x3eac1d20	0.3361597
48	0x3e4340d9	0.19067706
49	0x3e8597cc	0.26092374
50	0x3e5c6da1	0.21526195
51	0x3e8b543c	0.27212703
52	0x3e984db9	0.29746798
53	0x3ea0e8eb	0.31427702
54	0x3e402a89	0.18766226
55	0x3e2e9bfd	0.17051692
56	0x3d808a0e	0.06276332
57	0x3e6506c6	0.22365865
58	0x3e0da59b	0.13832705
59	0x3e47808f	0.19482635
60	0x3e2161c6	0.15759954
61	0x3abf6d72	0.0014604761
62	0x3e4fcdbb	0.20293324
63	0x3e33a641	0.1754389
64	0x3e2016ef	0.15633748
65	0x3e391153	0.18073015
66	0x3e0a7bb2	0.13523749
67	0x3ea224f0	0.31668806
68	0x3e2fe8c2	0.17178634
69	0x3e96353b	0.29337487
70	0x3df5653a	0.11982198
71	0x3e76d385	0.24104126
72	0x3e7cf99e	0.24704596
73	0x3ce4ab4d	0.027913714
74	0x3e17906b	0.14801185
75	0x3d9719f5	0.07377998
76	0x3e967caa	0.29391986
77	0x3cc7a249	0.024369376
78	0x3e584a64	0.21122128
79	0x3e374513	0.17897443
80	0x3e1f018e	0.15527937
81	0x3ec1ae5e	0.37828344
82	0x3d9bcb89	0.076071806
83	0x3e303dcf	0.17211078
84	0x3e2f9357	0.1714605
85	0x3e0bf5f2	0.1366804
86	0x3f2dc0d8	0.6787238
87	0x3e6ac973	0.2292841
88	0x3ec2b51c	0.380288
89	0x3eaeb021	0.3411875
90	0x3e5e048a	0.21681419
91	0x3e8441dc	0.25831497
92	0x3e7fb2da	0.2497057
93	0x3e540e34	0.20708543
94	0x3e013b7d	0.12620349
95	0x3ed2533c	0.41079128
96	0x3e118517	0.14210926
97	0x3e4f5c48	0.20250046
98	0x3e9359b7	0.28779384
99	0x3e722b99	0.23649444
100	0x3e8e63aa	0.27810413
101	0x3e8ea502	0.27860266
102	0x3e7f685d	0.24942155
103	0x3e48f0d1	0.19623114
104	0x3e4aafcf	0.19793628
105	0x3e286e4b	0.16448323
106	0x3de4a114	0.11163536
107	0x3e5e23c6	0.21693334
108	0x3e458bca	0.19291607
109	0x3e58189a	0.21103135
110	0x3ed3c2ee	0.41359657
111	0xbe0d994a	-0.13828006
112	0x3e8a1e2f	0.26976153
113	0x3ea433e6	0.32070845
114	0x3e8e2234	0.2776047
115	0x3dd07326	0.10178213
116	0x3e37a0ec	0.1793248
117	0x3df6564a	0.12028177
118	0x3e9917f7	0.29901096
119	0xbe41ad77	-0.18913828
120	0x3e0f58c9	0.13998713
121	0x3e2881bb	0.16455738
122	0x3dae2899	0.08503837
123	0x3e957768	0.29192662
124	0x3e7d1a8d	0.2471716
125	0x3e9f6e19	0.31138685
126	0x3e03435b	0.12818663
127	0x3dda9054	0.1067206
128	0x3e473a72	0.19455889
129	0x3e663eae	0.22484848
130	0x3e8126d1	0.25224927
131	0x3dfd0d0e	0.123560056
132	0xbd6649dc	-0.05622278
133	0x3e1475a1	0.14497997
134	0x3dd86350	0.10565817
135	0x3e1f4d23	0.15556769
136	0x3e7c0165	0.24609907
137	0x3e393c0b	0.18089311
138	0x3e3600f9	0.17773809
139	0x3e10ca29	0.14139618
140	0x3e62d345	0.22150905
141	0xbdd8d583	-0.10587599
142	0x3e87ac87	0.26498815
143	0x3eaa5e29	0.33274963
144	0x3e37d267	0.17951356
145	0x3e764349	0.24049105
146	0x3e492471	0.19642808
147	0x3e9f236b	0.3108171
148	0x3ec141d2	0.3774553
149	0x3e61d25c	0.22052902
150	0x3e010f7d	0.12603565
151	0x3e329008	0.17437756
152	0x3dc8970a	0.097944334
153	0x3e15f4ac	0.14644116
154	0x3ed1f0bd	0.4100398
155	0x3e6a0d1d	0.22856565
156	0x3e61fde3	0.22069506
157	0x3ce641c2	0.028107528
158	0x3e813afd	0.25240317
159	0x3e103724	0.14083534
160	0x3e6d7003	0.2318726
161	0xbd8a2961	-0.06746174
162	0x3decf794	0.11570659
163	0x3e3fdb73	0.18736057
164	0x3e29361c	0.16524547
165	0x3e1e75da	0.15474644
166	0x3ef07803	0.46966562
167	0x3e3eebbd	0.18644615
168	0x3d81c9ee	0.06337343
169	0x3e055486	0.13020524
170	0xbd8ecc26	-0.06972532
171	0x3e882057	0.26587173
172	0x3e586a6b	0.21134345
173	0x3e5bdc6f	0.21470807
174	0x3e0209c2	0.12699035
175	0x3e781c30	0.24229503
176	0x3e3f8df8	0.187065
177	0x3e629c3a	0.22129908
178	0x3e912a5f	0.2835264
179	0x3e313f04	0.17309195
180	0x3e1151a6	0.14191303
181	0xbe3fb4fc	-0.18721384
182	0x3d7e281c	0.06204997
183	0x3db38c80	0.087670326
184	0x3e550b53	0.20805101
185	0x3db54c78	0.08852476
186	0x3e6906e5	0.22756536
187	0x3e477098	0.19476545
188	0x3e2a7586	0.16646394
189	0x3d80047a	0.06250854
190	0x3ce31301	0.027719023
191	0x3e7f39cd	0.24924393
192	0x3dd28e72	0.102810755
193	0x3e23f091	0.16009738
194	0x3e8b40dc	0.2719792
195	0x3e8b35fb	0.2718962
196	0x3e81f316	0.25380772
197	0x3d29ae05	0.041425724
198	0x3e260282	0.16211894
199	0x3dfc8536	0.123300955
200	0x3db151f2	0.08658208
201	0x3df59d59	0.11992902
202	0x3ea5011e	0.32227415
203	0x3e43a24a	0.19104877
204	0x3e800faa	0.2501195
205	0x3ebcaf0a	0.36852294
206	0x3e933cd1	0.28757337
207	0x3e5f14f4	0.21785337
208	0x3e6b8acf	0.2300217
209	0x3e579b7c	0.21055406
210	0x3e0cb9b4	0.13742715
211	0xbe5880db	-0.21142904
212	0x3e9703b3	0.2949501
213	0x3dca518d	0.09878836
214	0x3e545825	0.2073675
215	0x3d11b946	0.03557708
216	0x3dbe94b5	0.09305707
217	0x3e23d545	0.15999325
218	0x3e39f5ab	0.18160121
219	0x3d914b3b	0.07094427
220	0x3dee5afd	0.116384484
221	0x3c929274	0.0178921
222	0x3e90a0bc	0.2824763
223	0x3ed30236	0.41212624
224	0x3e9af936	0.30268258
225	0x3d9e54eb	0.077310406
226	0x3d83d508	0.06437117
227	0x3e4331a8	0.19061911
228	0x3dc9d292	0.09854616
229	0x3e812588	0.25223947
230	0x3e307acd	0.17234345
231	0x3e4bc3ad	0.19898863
232	0x3dc6eae9	0.09712774
233	0x3e1d5cd8	0.15367448
234	0x3e84c2aa	0.25929767
235	0x3e82e7ec	0.25567567
236	0x3dcca40a	0.099922255
237	0x3e26dc86	0.1629506
238	0x3d48d0d5	0.049027283
239	0x3e5789c9	0.21048655
240	0x3e6b5025	0.22979791
241	0x3e51feb0	0.20507312
242	0x3e6076a4	0.21920258
243	0xbdf9912e	-0.12185894
244	0x3e936252	0.2878595
245	0x3ea1266c	0.31474626
246	0x3e9b3146	0.3031103
247	0x3d97d193	0.0741302
248	0x3df9a16b	0.12188991
249	0x3d376af7	0.044779744
250	0x3d9eaedf	0.07748198
251	0x3e355618	0.17708623
252	0x3e9f6c27	0.311372
253	0x3f079992	0.52968705
254	0x3e18c686	0.1491948
255	0x3dc69af4	0.09697524
